{"format": "graph-model", "generatedBy": "2.6.0", "convertedBy": "TensorFlow.js Converter v3.9.0", "signature": {"inputs": {"images": {"name": "images:0", "dtype": "DT_FLOAT", "tensorShape": {"dim": [{"size": "1"}, {"size": "3"}, {"size": "640"}, {"size": "640"}]}}}, "outputs": {"461": {"name": "Identity_2:0", "dtype": "DT_FLOAT", "tensorShape": {"dim": [{"size": "1"}, {"size": "3"}, {"size": "20"}, {"size": "20"}, {"size": "85"}]}}, "403": {"name": "Identity_1:0", "dtype": "DT_FLOAT", "tensorShape": {"dim": [{"size": "1"}, {"size": "3"}, {"size": "40"}, {"size": "40"}, {"size": "85"}]}}, "output": {"name": "Identity_3:0", "dtype": "DT_FLOAT", "tensorShape": {"dim": [{"size": "1"}, {"size": "25200"}, {"size": "85"}]}}, "345": {"name": "Identity:0", "dtype": "DT_FLOAT", "tensorShape": {"dim": [{"size": "1"}, {"size": "3"}, {"size": "80"}, {"size": "80"}, {"size": "85"}]}}}}, "modelTopology": {"node": [{"name": "StatefulPartitionedCall/SelectV2_1", "op": "Const", "attr": {"dtype": {"type": "DT_INT64"}, "value": {"tensor": {"dtype": "DT_INT64", "tensorShape": {"dim": [{"size": "1"}]}}}}}, {"name": "StatefulPartitionedCall/zeros_1", "op": "Const", "attr": {"value": {"tensor": {"dtype": "DT_INT64", "tensorShape": {}}}, "dtype": {"type": "DT_INT64"}}}, {"name": "StatefulPartitionedCall/Const_22", "op": "Const", "attr": {"dtype": {"type": "DT_INT64"}, "value": {"tensor": {"dtype": "DT_INT64", "tensorShape": {}}}}}, {"name": "StatefulPartitionedCall/Shape_2", "op": "Const", "attr": {"dtype": {"type": "DT_INT64"}, "value": {"tensor": {"dtype": "DT_INT64", "tensorShape": {"dim": [{"size": "5"}]}}}}}, {"name": "StatefulPartitionedCall/SelectV2_2", "op": "Const", "attr": {"dtype": {"type": "DT_INT64"}, "value": {"tensor": {"dtype": "DT_INT64", "tensorShape": {"dim": [{"size": "1"}]}}}}}, {"name": "StatefulPartitionedCall/Const_21", "op": "Const", "attr": {"dtype": {"type": "DT_INT64"}, "value": {"tensor": {"dtype": "DT_INT64", "tensorShape": {}}}}}, {"name": "StatefulPartitionedCall/ExpandDims", "op": "Const", "attr": {"dtype": {"type": "DT_INT64"}, "value": {"tensor": {"dtype": "DT_INT64", "tensorShape": {"dim": [{"size": "1"}, {"size": "1"}]}}}}}, {"name": "StatefulPartitionedCall/Cast_12", "op": "Const", "attr": {"dtype": {"type": "DT_INT64"}, "value": {"tensor": {"dtype": "DT_INT64", "tensorShape": {"dim": [{"size": "1"}]}}}}}, {"name": "StatefulPartitionedCall/onnx_tf_prefix_Constant_218", "op": "Const", "attr": {"value": {"tensor": {"dtype": "DT_INT64", "tensorShape": {"dim": [{"size": "1"}]}}}, "dtype": {"type": "DT_INT64"}}}, {"name": "StatefulPartitionedCall/Const_23", "op": "Const", "attr": {"value": {"tensor": {"dtype": "DT_INT64", "tensorShape": {}}}, "dtype": {"type": "DT_INT64"}}}, {"name": "StatefulPartitionedCall/onnx_tf_prefix_Constant_220", "op": "Const", "attr": {"dtype": {"type": "DT_FLOAT"}, "value": {"tensor": {"dtype": "DT_FLOAT", "tensorShape": {}}}}}, {"name": "StatefulPartitionedCall/onnx_tf_prefix_Sub_223", "op": "Const", "attr": {"value": {"tensor": {"dtype": "DT_FLOAT", "tensorShape": {"dim": [{"size": "1"}, {"size": "3"}, {"size": "80"}, {"size": "80"}, {"size": "2"}]}}}, "dtype": {"type": "DT_FLOAT"}}}, {"name": "StatefulPartitionedCall/onnx_tf_prefix_Constant_226", "op": "Const", "attr": {"dtype": {"type": "DT_FLOAT"}, "value": {"tensor": {"dtype": "DT_FLOAT", "tensorShape": {}}}}}, {"name": "StatefulPartitionedCall/SelectV2_5", "op": "Const", "attr": {"dtype": {"type": "DT_INT64"}, "value": {"tensor": {"dtype": "DT_INT64", "tensorShape": {"dim": [{"size": "1"}]}}}}}, {"name": "StatefulPartitionedCall/zeros_2", "op": "Const", "attr": {"dtype": {"type": "DT_INT64"}, "value": {"tensor": {"dtype": "DT_INT64", "tensorShape": {}}}}}, {"name": "StatefulPartitionedCall/Const_25", "op": "Const", "attr": {"value": {"tensor": {"dtype": "DT_INT64", "tensorShape": {}}}, "dtype": {"type": "DT_INT64"}}}, {"name": "StatefulPartitionedCall/Shape_3", "op": "Const", "attr": {"dtype": {"type": "DT_INT64"}, "value": {"tensor": {"dtype": "DT_INT64", "tensorShape": {"dim": [{"size": "5"}]}}}}}, {"name": "StatefulPartitionedCall/SelectV2_6", "op": "Const", "attr": {"dtype": {"type": "DT_INT64"}, "value": {"tensor": {"dtype": "DT_INT64", "tensorShape": {"dim": [{"size": "1"}]}}}}}, {"name": "StatefulPartitionedCall/Const_24", "op": "Const", "attr": {"dtype": {"type": "DT_INT64"}, "value": {"tensor": {"dtype": "DT_INT64", "tensorShape": {}}}}}, {"name": "StatefulPartitionedCall/ExpandDims_1", "op": "Const", "attr": {"value": {"tensor": {"dtype": "DT_INT64", "tensorShape": {"dim": [{"size": "1"}, {"size": "1"}]}}}, "dtype": {"type": "DT_INT64"}}}, {"name": "StatefulPartitionedCall/Cast_14", "op": "Const", "attr": {"value": {"tensor": {"dtype": "DT_INT64", "tensorShape": {"dim": [{"size": "1"}]}}}, "dtype": {"type": "DT_INT64"}}}, {"name": "StatefulPartitionedCall/onnx_tf_prefix_Constant_231", "op": "Const", "attr": {"value": {"tensor": {"dtype": "DT_INT64", "tensorShape": {"dim": [{"size": "1"}]}}}, "dtype": {"type": "DT_INT64"}}}, {"name": "StatefulPartitionedCall/Const_26", "op": "Const", "attr": {"value": {"tensor": {"dtype": "DT_INT64", "tensorShape": {}}}, "dtype": {"type": "DT_INT64"}}}, {"name": "StatefulPartitionedCall/onnx_tf_prefix_Constant_233", "op": "Const", "attr": {"dtype": {"type": "DT_FLOAT"}, "value": {"tensor": {"dtype": "DT_FLOAT", "tensorShape": {}}}}}, {"name": "StatefulPartitionedCall/onnx_tf_prefix_Constant_237", "op": "Const", "attr": {"value": {"tensor": {"dtype": "DT_FLOAT", "tensorShape": {"dim": [{"size": "1"}, {"size": "3"}, {"size": "80"}, {"size": "80"}, {"size": "2"}]}}}, "dtype": {"type": "DT_FLOAT"}}}, {"name": "StatefulPartitionedCall/transpose_182/perm", "op": "Const", "attr": {"dtype": {"type": "DT_INT32"}, "value": {"tensor": {"dtype": "DT_INT32", "tensorShape": {"dim": [{"size": "4"}]}}}}}, {"name": "StatefulPartitionedCall/split_57", "op": "Const", "attr": {"dtype": {"type": "DT_FLOAT"}, "value": {"tensor": {"dtype": "DT_FLOAT", "tensorShape": {"dim": [{"size": "1"}, {"size": "1"}, {"size": "128"}, {"size": "255"}]}}}}}, {"name": "unknown_116", "op": "Const", "attr": {"value": {"tensor": {"dtype": "DT_FLOAT", "tensorShape": {"dim": [{"size": "255"}]}}}, "dtype": {"type": "DT_FLOAT"}}}, {"name": "StatefulPartitionedCall/transpose_183/perm", "op": "Const", "attr": {"dtype": {"type": "DT_INT32"}, "value": {"tensor": {"dtype": "DT_INT32", "tensorShape": {"dim": [{"size": "4"}]}}}}}, {"name": "StatefulPartitionedCall/Cast_10", "op": "Const", "attr": {"value": {"tensor": {"dtype": "DT_INT64", "tensorShape": {"dim": [{"size": "1"}]}}}, "dtype": {"type": "DT_INT64"}}}, {"name": "StatefulPartitionedCall/zeros", "op": "Const", "attr": {"dtype": {"type": "DT_INT64"}, "value": {"tensor": {"dtype": "DT_INT64", "tensorShape": {}}}}}, {"name": "StatefulPartitionedCall/onnx_tf_prefix_Transpose_213/perm", "op": "Const", "attr": {"value": {"tensor": {"dtype": "DT_INT32", "tensorShape": {"dim": [{"size": "5"}]}}}, "dtype": {"type": "DT_INT32"}}}, {"name": "StatefulPartitionedCall/SelectV2_9", "op": "Const", "attr": {"value": {"tensor": {"dtype": "DT_INT64", "tensorShape": {"dim": [{"size": "1"}]}}}, "dtype": {"type": "DT_INT64"}}}, {"name": "StatefulPartitionedCall/zeros_3", "op": "Const", "attr": {"dtype": {"type": "DT_INT64"}, "value": {"tensor": {"dtype": "DT_INT64", "tensorShape": {}}}}}, {"name": "StatefulPartitionedCall/Const_28", "op": "Const", "attr": {"value": {"tensor": {"dtype": "DT_INT64", "tensorShape": {}}}, "dtype": {"type": "DT_INT64"}}}, {"name": "StatefulPartitionedCall/Shape_4", "op": "Const", "attr": {"value": {"tensor": {"dtype": "DT_INT64", "tensorShape": {"dim": [{"size": "5"}]}}}, "dtype": {"type": "DT_INT64"}}}, {"name": "StatefulPartitionedCall/SelectV2_10", "op": "Const", "attr": {"value": {"tensor": {"dtype": "DT_INT64", "tensorShape": {"dim": [{"size": "1"}]}}}, "dtype": {"type": "DT_INT64"}}}, {"name": "StatefulPartitionedCall/Const_27", "op": "Const", "attr": {"value": {"tensor": {"dtype": "DT_INT64", "tensorShape": {}}}, "dtype": {"type": "DT_INT64"}}}, {"name": "StatefulPartitionedCall/ExpandDims_2", "op": "Const", "attr": {"dtype": {"type": "DT_INT64"}, "value": {"tensor": {"dtype": "DT_INT64", "tensorShape": {"dim": [{"size": "1"}, {"size": "1"}]}}}}}, {"name": "StatefulPartitionedCall/Cast_16", "op": "Const", "attr": {"dtype": {"type": "DT_INT64"}, "value": {"tensor": {"dtype": "DT_INT64", "tensorShape": {"dim": [{"size": "1"}]}}}}}, {"name": "StatefulPartitionedCall/onnx_tf_prefix_Constant_242", "op": "Const", "attr": {"value": {"tensor": {"dtype": "DT_INT64", "tensorShape": {"dim": [{"size": "1"}]}}}, "dtype": {"type": "DT_INT64"}}}, {"name": "StatefulPartitionedCall/Const_29", "op": "Const", "attr": {"dtype": {"type": "DT_INT64"}, "value": {"tensor": {"dtype": "DT_INT64", "tensorShape": {}}}}}, {"name": "StatefulPartitionedCall/onnx_tf_prefix_Concat_244/axis", "op": "Const", "attr": {"dtype": {"type": "DT_INT32"}, "value": {"tensor": {"dtype": "DT_INT32", "tensorShape": {}}}}}, {"name": "StatefulPartitionedCall/Cast_17", "op": "Const", "attr": {"value": {"tensor": {"dtype": "DT_INT64", "tensorShape": {"dim": [{"size": "1"}]}}}, "dtype": {"type": "DT_INT64"}}}, {"name": "Func/StatefulPartitionedCall/assert_equal_1/Assert/AssertGuard/then/_140/output/_234", "op": "Const", "attr": {"value": {"tensor": {"dtype": "DT_BOOL", "tensorShape": {}}}, "dtype": {"type": "DT_BOOL"}}}, {"name": "StatefulPartitionedCall/zeros_4", "op": "Const", "attr": {"dtype": {"type": "DT_INT64"}, "value": {"tensor": {"dtype": "DT_INT64", "tensorShape": {}}}}}, {"name": "StatefulPartitionedCall/SelectV2_13", "op": "Const", "attr": {"dtype": {"type": "DT_INT64"}, "value": {"tensor": {"dtype": "DT_INT64", "tensorShape": {"dim": [{"size": "1"}]}}}}}, {"name": "StatefulPartitionedCall/zeros_6", "op": "Const", "attr": {"dtype": {"type": "DT_INT64"}, "value": {"tensor": {"dtype": "DT_INT64", "tensorShape": {}}}}}, {"name": "StatefulPartitionedCall/Const_33", "op": "Const", "attr": {"dtype": {"type": "DT_INT64"}, "value": {"tensor": {"dtype": "DT_INT64", "tensorShape": {}}}}}, {"name": "StatefulPartitionedCall/Shape_9", "op": "Const", "attr": {"value": {"tensor": {"dtype": "DT_INT64", "tensorShape": {"dim": [{"size": "5"}]}}}, "dtype": {"type": "DT_INT64"}}}, {"name": "StatefulPartitionedCall/SelectV2_14", "op": "Const", "attr": {"value": {"tensor": {"dtype": "DT_INT64", "tensorShape": {"dim": [{"size": "1"}]}}}, "dtype": {"type": "DT_INT64"}}}, {"name": "StatefulPartitionedCall/Const_32", "op": "Const", "attr": {"dtype": {"type": "DT_INT64"}, "value": {"tensor": {"dtype": "DT_INT64", "tensorShape": {}}}}}, {"name": "StatefulPartitionedCall/ExpandDims_3", "op": "Const", "attr": {"value": {"tensor": {"dtype": "DT_INT64", "tensorShape": {"dim": [{"size": "1"}, {"size": "1"}]}}}, "dtype": {"type": "DT_INT64"}}}, {"name": "StatefulPartitionedCall/Cast_26", "op": "Const", "attr": {"dtype": {"type": "DT_INT64"}, "value": {"tensor": {"dtype": "DT_INT64", "tensorShape": {"dim": [{"size": "1"}]}}}}}, {"name": "StatefulPartitionedCall/onnx_tf_prefix_Constant_268", "op": "Const", "attr": {"value": {"tensor": {"dtype": "DT_INT64", "tensorShape": {"dim": [{"size": "1"}]}}}, "dtype": {"type": "DT_INT64"}}}, {"name": "StatefulPartitionedCall/Const_34", "op": "Const", "attr": {"value": {"tensor": {"dtype": "DT_INT64", "tensorShape": {}}}, "dtype": {"type": "DT_INT64"}}}, {"name": "StatefulPartitionedCall/onnx_tf_prefix_Constant_270", "op": "Const", "attr": {"value": {"tensor": {"dtype": "DT_FLOAT", "tensorShape": {}}}, "dtype": {"type": "DT_FLOAT"}}}, {"name": "StatefulPartitionedCall/onnx_tf_prefix_Sub_273", "op": "Const", "attr": {"dtype": {"type": "DT_FLOAT"}, "value": {"tensor": {"dtype": "DT_FLOAT", "tensorShape": {"dim": [{"size": "1"}, {"size": "3"}, {"size": "40"}, {"size": "40"}, {"size": "2"}]}}}}}, {"name": "StatefulPartitionedCall/onnx_tf_prefix_Constant_276", "op": "Const", "attr": {"value": {"tensor": {"dtype": "DT_FLOAT", "tensorShape": {}}}, "dtype": {"type": "DT_FLOAT"}}}, {"name": "StatefulPartitionedCall/SelectV2_17", "op": "Const", "attr": {"dtype": {"type": "DT_INT64"}, "value": {"tensor": {"dtype": "DT_INT64", "tensorShape": {"dim": [{"size": "1"}]}}}}}, {"name": "StatefulPartitionedCall/zeros_7", "op": "Const", "attr": {"value": {"tensor": {"dtype": "DT_INT64", "tensorShape": {}}}, "dtype": {"type": "DT_INT64"}}}, {"name": "StatefulPartitionedCall/Const_36", "op": "Const", "attr": {"dtype": {"type": "DT_INT64"}, "value": {"tensor": {"dtype": "DT_INT64", "tensorShape": {}}}}}, {"name": "StatefulPartitionedCall/Shape_10", "op": "Const", "attr": {"value": {"tensor": {"dtype": "DT_INT64", "tensorShape": {"dim": [{"size": "5"}]}}}, "dtype": {"type": "DT_INT64"}}}, {"name": "StatefulPartitionedCall/SelectV2_18", "op": "Const", "attr": {"value": {"tensor": {"dtype": "DT_INT64", "tensorShape": {"dim": [{"size": "1"}]}}}, "dtype": {"type": "DT_INT64"}}}, {"name": "StatefulPartitionedCall/Const_35", "op": "Const", "attr": {"dtype": {"type": "DT_INT64"}, "value": {"tensor": {"dtype": "DT_INT64", "tensorShape": {}}}}}, {"name": "StatefulPartitionedCall/ExpandDims_4", "op": "Const", "attr": {"dtype": {"type": "DT_INT64"}, "value": {"tensor": {"dtype": "DT_INT64", "tensorShape": {"dim": [{"size": "1"}, {"size": "1"}]}}}}}, {"name": "StatefulPartitionedCall/Cast_28", "op": "Const", "attr": {"value": {"tensor": {"dtype": "DT_INT64", "tensorShape": {"dim": [{"size": "1"}]}}}, "dtype": {"type": "DT_INT64"}}}, {"name": "StatefulPartitionedCall/onnx_tf_prefix_Constant_281", "op": "Const", "attr": {"value": {"tensor": {"dtype": "DT_INT64", "tensorShape": {"dim": [{"size": "1"}]}}}, "dtype": {"type": "DT_INT64"}}}, {"name": "StatefulPartitionedCall/Const_37", "op": "Const", "attr": {"dtype": {"type": "DT_INT64"}, "value": {"tensor": {"dtype": "DT_INT64", "tensorShape": {}}}}}, {"name": "StatefulPartitionedCall/onnx_tf_prefix_Constant_283", "op": "Const", "attr": {"dtype": {"type": "DT_FLOAT"}, "value": {"tensor": {"dtype": "DT_FLOAT", "tensorShape": {}}}}}, {"name": "StatefulPartitionedCall/onnx_tf_prefix_Constant_287", "op": "Const", "attr": {"dtype": {"type": "DT_FLOAT"}, "value": {"tensor": {"dtype": "DT_FLOAT", "tensorShape": {"dim": [{"size": "1"}, {"size": "3"}, {"size": "40"}, {"size": "40"}, {"size": "2"}]}}}}}, {"name": "StatefulPartitionedCall/transpose_185/perm", "op": "Const", "attr": {"dtype": {"type": "DT_INT32"}, "value": {"tensor": {"dtype": "DT_INT32", "tensorShape": {"dim": [{"size": "4"}]}}}}}, {"name": "StatefulPartitionedCall/split_58", "op": "Const", "attr": {"dtype": {"type": "DT_FLOAT"}, "value": {"tensor": {"dtype": "DT_FLOAT", "tensorShape": {"dim": [{"size": "1"}, {"size": "1"}, {"size": "256"}, {"size": "255"}]}}}}}, {"name": "unknown_122", "op": "Const", "attr": {"dtype": {"type": "DT_FLOAT"}, "value": {"tensor": {"dtype": "DT_FLOAT", "tensorShape": {"dim": [{"size": "255"}]}}}}}, {"name": "StatefulPartitionedCall/transpose_186/perm", "op": "Const", "attr": {"value": {"tensor": {"dtype": "DT_INT32", "tensorShape": {"dim": [{"size": "4"}]}}}, "dtype": {"type": "DT_INT32"}}}, {"name": "StatefulPartitionedCall/Cast_24", "op": "Const", "attr": {"dtype": {"type": "DT_INT64"}, "value": {"tensor": {"dtype": "DT_INT64", "tensorShape": {"dim": [{"size": "1"}]}}}}}, {"name": "StatefulPartitionedCall/zeros_5", "op": "Const", "attr": {"dtype": {"type": "DT_INT64"}, "value": {"tensor": {"dtype": "DT_INT64", "tensorShape": {}}}}}, {"name": "StatefulPartitionedCall/onnx_tf_prefix_Transpose_263/perm", "op": "Const", "attr": {"dtype": {"type": "DT_INT32"}, "value": {"tensor": {"dtype": "DT_INT32", "tensorShape": {"dim": [{"size": "5"}]}}}}}, {"name": "StatefulPartitionedCall/SelectV2_21", "op": "Const", "attr": {"value": {"tensor": {"dtype": "DT_INT64", "tensorShape": {"dim": [{"size": "1"}]}}}, "dtype": {"type": "DT_INT64"}}}, {"name": "StatefulPartitionedCall/zeros_8", "op": "Const", "attr": {"dtype": {"type": "DT_INT64"}, "value": {"tensor": {"dtype": "DT_INT64", "tensorShape": {}}}}}, {"name": "StatefulPartitionedCall/Const_39", "op": "Const", "attr": {"dtype": {"type": "DT_INT64"}, "value": {"tensor": {"dtype": "DT_INT64", "tensorShape": {}}}}}, {"name": "StatefulPartitionedCall/Shape_11", "op": "Const", "attr": {"dtype": {"type": "DT_INT64"}, "value": {"tensor": {"dtype": "DT_INT64", "tensorShape": {"dim": [{"size": "5"}]}}}}}, {"name": "StatefulPartitionedCall/SelectV2_22", "op": "Const", "attr": {"dtype": {"type": "DT_INT64"}, "value": {"tensor": {"dtype": "DT_INT64", "tensorShape": {"dim": [{"size": "1"}]}}}}}, {"name": "StatefulPartitionedCall/Const_38", "op": "Const", "attr": {"value": {"tensor": {"dtype": "DT_INT64", "tensorShape": {}}}, "dtype": {"type": "DT_INT64"}}}, {"name": "StatefulPartitionedCall/ExpandDims_5", "op": "Const", "attr": {"value": {"tensor": {"dtype": "DT_INT64", "tensorShape": {"dim": [{"size": "1"}, {"size": "1"}]}}}, "dtype": {"type": "DT_INT64"}}}, {"name": "StatefulPartitionedCall/Cast_30", "op": "Const", "attr": {"dtype": {"type": "DT_INT64"}, "value": {"tensor": {"dtype": "DT_INT64", "tensorShape": {"dim": [{"size": "1"}]}}}}}, {"name": "StatefulPartitionedCall/onnx_tf_prefix_Constant_292", "op": "Const", "attr": {"value": {"tensor": {"dtype": "DT_INT64", "tensorShape": {"dim": [{"size": "1"}]}}}, "dtype": {"type": "DT_INT64"}}}, {"name": "StatefulPartitionedCall/Const_40", "op": "Const", "attr": {"dtype": {"type": "DT_INT64"}, "value": {"tensor": {"dtype": "DT_INT64", "tensorShape": {}}}}}, {"name": "StatefulPartitionedCall/onnx_tf_prefix_Concat_294/axis", "op": "Const", "attr": {"dtype": {"type": "DT_INT32"}, "value": {"tensor": {"dtype": "DT_INT32", "tensorShape": {}}}}}, {"name": "StatefulPartitionedCall/Cast_31", "op": "Const", "attr": {"value": {"tensor": {"dtype": "DT_INT64", "tensorShape": {"dim": [{"size": "1"}]}}}, "dtype": {"type": "DT_INT64"}}}, {"name": "StatefulPartitionedCall/zeros_9", "op": "Const", "attr": {"dtype": {"type": "DT_INT64"}, "value": {"tensor": {"dtype": "DT_INT64", "tensorShape": {}}}}}, {"name": "StatefulPartitionedCall/SelectV2_25", "op": "Const", "attr": {"value": {"tensor": {"dtype": "DT_INT64", "tensorShape": {"dim": [{"size": "1"}]}}}, "dtype": {"type": "DT_INT64"}}}, {"name": "StatefulPartitionedCall/zeros_11", "op": "Const", "attr": {"dtype": {"type": "DT_INT64"}, "value": {"tensor": {"dtype": "DT_INT64", "tensorShape": {}}}}}, {"name": "StatefulPartitionedCall/Const_44", "op": "Const", "attr": {"dtype": {"type": "DT_INT64"}, "value": {"tensor": {"dtype": "DT_INT64", "tensorShape": {}}}}}, {"name": "StatefulPartitionedCall/Shape_16", "op": "Const", "attr": {"dtype": {"type": "DT_INT64"}, "value": {"tensor": {"dtype": "DT_INT64", "tensorShape": {"dim": [{"size": "5"}]}}}}}, {"name": "StatefulPartitionedCall/SelectV2_26", "op": "Const", "attr": {"value": {"tensor": {"dtype": "DT_INT64", "tensorShape": {"dim": [{"size": "1"}]}}}, "dtype": {"type": "DT_INT64"}}}, {"name": "StatefulPartitionedCall/Const_43", "op": "Const", "attr": {"dtype": {"type": "DT_INT64"}, "value": {"tensor": {"dtype": "DT_INT64", "tensorShape": {}}}}}, {"name": "StatefulPartitionedCall/ExpandDims_6", "op": "Const", "attr": {"value": {"tensor": {"dtype": "DT_INT64", "tensorShape": {"dim": [{"size": "1"}, {"size": "1"}]}}}, "dtype": {"type": "DT_INT64"}}}, {"name": "StatefulPartitionedCall/Cast_40", "op": "Const", "attr": {"value": {"tensor": {"dtype": "DT_INT64", "tensorShape": {"dim": [{"size": "1"}]}}}, "dtype": {"type": "DT_INT64"}}}, {"name": "StatefulPartitionedCall/onnx_tf_prefix_Constant_318", "op": "Const", "attr": {"value": {"tensor": {"dtype": "DT_INT64", "tensorShape": {"dim": [{"size": "1"}]}}}, "dtype": {"type": "DT_INT64"}}}, {"name": "StatefulPartitionedCall/Const_45", "op": "Const", "attr": {"dtype": {"type": "DT_INT64"}, "value": {"tensor": {"dtype": "DT_INT64", "tensorShape": {}}}}}, {"name": "StatefulPartitionedCall/onnx_tf_prefix_Constant_320", "op": "Const", "attr": {"dtype": {"type": "DT_FLOAT"}, "value": {"tensor": {"dtype": "DT_FLOAT", "tensorShape": {}}}}}, {"name": "StatefulPartitionedCall/onnx_tf_prefix_Sub_323", "op": "Const", "attr": {"value": {"tensor": {"dtype": "DT_FLOAT", "tensorShape": {"dim": [{"size": "1"}, {"size": "3"}, {"size": "20"}, {"size": "20"}, {"size": "2"}]}}}, "dtype": {"type": "DT_FLOAT"}}}, {"name": "StatefulPartitionedCall/onnx_tf_prefix_Constant_326", "op": "Const", "attr": {"dtype": {"type": "DT_FLOAT"}, "value": {"tensor": {"dtype": "DT_FLOAT", "tensorShape": {}}}}}, {"name": "StatefulPartitionedCall/SelectV2_29", "op": "Const", "attr": {"value": {"tensor": {"dtype": "DT_INT64", "tensorShape": {"dim": [{"size": "1"}]}}}, "dtype": {"type": "DT_INT64"}}}, {"name": "StatefulPartitionedCall/zeros_12", "op": "Const", "attr": {"value": {"tensor": {"dtype": "DT_INT64", "tensorShape": {}}}, "dtype": {"type": "DT_INT64"}}}, {"name": "StatefulPartitionedCall/Const_47", "op": "Const", "attr": {"dtype": {"type": "DT_INT64"}, "value": {"tensor": {"dtype": "DT_INT64", "tensorShape": {}}}}}, {"name": "StatefulPartitionedCall/Shape_17", "op": "Const", "attr": {"value": {"tensor": {"dtype": "DT_INT64", "tensorShape": {"dim": [{"size": "5"}]}}}, "dtype": {"type": "DT_INT64"}}}, {"name": "StatefulPartitionedCall/SelectV2_30", "op": "Const", "attr": {"dtype": {"type": "DT_INT64"}, "value": {"tensor": {"dtype": "DT_INT64", "tensorShape": {"dim": [{"size": "1"}]}}}}}, {"name": "StatefulPartitionedCall/Const_46", "op": "Const", "attr": {"dtype": {"type": "DT_INT64"}, "value": {"tensor": {"dtype": "DT_INT64", "tensorShape": {}}}}}, {"name": "StatefulPartitionedCall/ExpandDims_7", "op": "Const", "attr": {"dtype": {"type": "DT_INT64"}, "value": {"tensor": {"dtype": "DT_INT64", "tensorShape": {"dim": [{"size": "1"}, {"size": "1"}]}}}}}, {"name": "StatefulPartitionedCall/Cast_42", "op": "Const", "attr": {"value": {"tensor": {"dtype": "DT_INT64", "tensorShape": {"dim": [{"size": "1"}]}}}, "dtype": {"type": "DT_INT64"}}}, {"name": "StatefulPartitionedCall/onnx_tf_prefix_Constant_331", "op": "Const", "attr": {"value": {"tensor": {"dtype": "DT_INT64", "tensorShape": {"dim": [{"size": "1"}]}}}, "dtype": {"type": "DT_INT64"}}}, {"name": "StatefulPartitionedCall/Const_48", "op": "Const", "attr": {"dtype": {"type": "DT_INT64"}, "value": {"tensor": {"dtype": "DT_INT64", "tensorShape": {}}}}}, {"name": "StatefulPartitionedCall/onnx_tf_prefix_Constant_333", "op": "Const", "attr": {"value": {"tensor": {"dtype": "DT_FLOAT", "tensorShape": {}}}, "dtype": {"type": "DT_FLOAT"}}}, {"name": "StatefulPartitionedCall/onnx_tf_prefix_Constant_337", "op": "Const", "attr": {"value": {"tensor": {"dtype": "DT_FLOAT", "tensorShape": {"dim": [{"size": "1"}, {"size": "3"}, {"size": "20"}, {"size": "20"}, {"size": "2"}]}}}, "dtype": {"type": "DT_FLOAT"}}}, {"name": "StatefulPartitionedCall/transpose_167/perm", "op": "Const", "attr": {"value": {"tensor": {"dtype": "DT_INT32", "tensorShape": {"dim": [{"size": "4"}]}}}, "dtype": {"type": "DT_INT32"}}}, {"name": "StatefulPartitionedCall/split_52", "op": "Const", "attr": {"value": {"tensor": {"dtype": "DT_FLOAT", "tensorShape": {"dim": [{"size": "1"}, {"size": "1"}, {"size": "512"}, {"size": "256"}]}}}, "dtype": {"type": "DT_FLOAT"}}}, {"name": "unknown_106", "op": "Const", "attr": {"dtype": {"type": "DT_FLOAT"}, "value": {"tensor": {"dtype": "DT_FLOAT", "tensorShape": {"dim": [{"size": "256"}]}}}}}, {"name": "StatefulPartitionedCall/transpose_168/perm", "op": "Const", "attr": {"dtype": {"type": "DT_INT32"}, "value": {"tensor": {"dtype": "DT_INT32", "tensorShape": {"dim": [{"size": "4"}]}}}}}, {"name": "StatefulPartitionedCall/transpose_170/perm", "op": "Const", "attr": {"value": {"tensor": {"dtype": "DT_INT32", "tensorShape": {"dim": [{"size": "4"}]}}}, "dtype": {"type": "DT_INT32"}}}, {"name": "StatefulPartitionedCall/split_53", "op": "Const", "attr": {"dtype": {"type": "DT_FLOAT"}, "value": {"tensor": {"dtype": "DT_FLOAT", "tensorShape": {"dim": [{"size": "1"}, {"size": "1"}, {"size": "256"}, {"size": "256"}]}}}}}, {"name": "unknown_108", "op": "Const", "attr": {"value": {"tensor": {"dtype": "DT_FLOAT", "tensorShape": {"dim": [{"size": "256"}]}}}, "dtype": {"type": "DT_FLOAT"}}}, {"name": "StatefulPartitionedCall/transpose_171/perm", "op": "Const", "attr": {"value": {"tensor": {"dtype": "DT_INT32", "tensorShape": {"dim": [{"size": "4"}]}}}, "dtype": {"type": "DT_INT32"}}}, {"name": "StatefulPartitionedCall/Const_19", "op": "Const", "attr": {"dtype": {"type": "DT_INT32"}, "value": {"tensor": {"dtype": "DT_INT32", "tensorShape": {"dim": [{"size": "4"}, {"size": "2"}]}}}}}, {"name": "StatefulPartitionedCall/transpose_173/perm", "op": "Const", "attr": {"value": {"tensor": {"dtype": "DT_INT32", "tensorShape": {"dim": [{"size": "4"}]}}}, "dtype": {"type": "DT_INT32"}}}, {"name": "StatefulPartitionedCall/split_54", "op": "Const", "attr": {"value": {"tensor": {"dtype": "DT_FLOAT", "tensorShape": {"dim": [{"size": "3"}, {"size": "3"}, {"size": "256"}, {"size": "256"}]}}}, "dtype": {"type": "DT_FLOAT"}}}, {"name": "unknown_110", "op": "Const", "attr": {"value": {"tensor": {"dtype": "DT_FLOAT", "tensorShape": {"dim": [{"size": "256"}]}}}, "dtype": {"type": "DT_FLOAT"}}}, {"name": "StatefulPartitionedCall/transpose_174/perm", "op": "Const", "attr": {"value": {"tensor": {"dtype": "DT_INT32", "tensorShape": {"dim": [{"size": "4"}]}}}, "dtype": {"type": "DT_INT32"}}}, {"name": "StatefulPartitionedCall/transpose_149/perm", "op": "Const", "attr": {"value": {"tensor": {"dtype": "DT_INT32", "tensorShape": {"dim": [{"size": "4"}]}}}, "dtype": {"type": "DT_INT32"}}}, {"name": "StatefulPartitionedCall/split_46", "op": "Const", "attr": {"value": {"tensor": {"dtype": "DT_FLOAT", "tensorShape": {"dim": [{"size": "1"}, {"size": "1"}, {"size": "256"}, {"size": "128"}]}}}, "dtype": {"type": "DT_FLOAT"}}}, {"name": "unknown_94", "op": "Const", "attr": {"value": {"tensor": {"dtype": "DT_FLOAT", "tensorShape": {"dim": [{"size": "128"}]}}}, "dtype": {"type": "DT_FLOAT"}}}, {"name": "StatefulPartitionedCall/transpose_150/perm", "op": "Const", "attr": {"dtype": {"type": "DT_INT32"}, "value": {"tensor": {"dtype": "DT_INT32", "tensorShape": {"dim": [{"size": "4"}]}}}}}, {"name": "StatefulPartitionedCall/transpose_152/perm", "op": "Const", "attr": {"dtype": {"type": "DT_INT32"}, "value": {"tensor": {"dtype": "DT_INT32", "tensorShape": {"dim": [{"size": "4"}]}}}}}, {"name": "StatefulPartitionedCall/split_47", "op": "Const", "attr": {"dtype": {"type": "DT_FLOAT"}, "value": {"tensor": {"dtype": "DT_FLOAT", "tensorShape": {"dim": [{"size": "1"}, {"size": "1"}, {"size": "128"}, {"size": "128"}]}}}}}, {"name": "unknown_96", "op": "Const", "attr": {"dtype": {"type": "DT_FLOAT"}, "value": {"tensor": {"dtype": "DT_FLOAT", "tensorShape": {"dim": [{"size": "128"}]}}}}}, {"name": "StatefulPartitionedCall/transpose_153/perm", "op": "Const", "attr": {"value": {"tensor": {"dtype": "DT_INT32", "tensorShape": {"dim": [{"size": "4"}]}}}, "dtype": {"type": "DT_INT32"}}}, {"name": "StatefulPartitionedCall/Const_17", "op": "Const", "attr": {"dtype": {"type": "DT_INT32"}, "value": {"tensor": {"dtype": "DT_INT32", "tensorShape": {"dim": [{"size": "4"}, {"size": "2"}]}}}}}, {"name": "StatefulPartitionedCall/transpose_155/perm", "op": "Const", "attr": {"value": {"tensor": {"dtype": "DT_INT32", "tensorShape": {"dim": [{"size": "4"}]}}}, "dtype": {"type": "DT_INT32"}}}, {"name": "StatefulPartitionedCall/split_48", "op": "Const", "attr": {"dtype": {"type": "DT_FLOAT"}, "value": {"tensor": {"dtype": "DT_FLOAT", "tensorShape": {"dim": [{"size": "3"}, {"size": "3"}, {"size": "128"}, {"size": "128"}]}}}}}, {"name": "unknown_98", "op": "Const", "attr": {"value": {"tensor": {"dtype": "DT_FLOAT", "tensorShape": {"dim": [{"size": "128"}]}}}, "dtype": {"type": "DT_FLOAT"}}}, {"name": "StatefulPartitionedCall/transpose_156/perm", "op": "Const", "attr": {"value": {"tensor": {"dtype": "DT_INT32", "tensorShape": {"dim": [{"size": "4"}]}}}, "dtype": {"type": "DT_INT32"}}}, {"name": "StatefulPartitionedCall/transpose_131/perm", "op": "Const", "attr": {"value": {"tensor": {"dtype": "DT_INT32", "tensorShape": {"dim": [{"size": "4"}]}}}, "dtype": {"type": "DT_INT32"}}}, {"name": "StatefulPartitionedCall/split_40", "op": "Const", "attr": {"dtype": {"type": "DT_FLOAT"}, "value": {"tensor": {"dtype": "DT_FLOAT", "tensorShape": {"dim": [{"size": "1"}, {"size": "1"}, {"size": "256"}, {"size": "64"}]}}}}}, {"name": "unknown_82", "op": "Const", "attr": {"value": {"tensor": {"dtype": "DT_FLOAT", "tensorShape": {"dim": [{"size": "64"}]}}}, "dtype": {"type": "DT_FLOAT"}}}, {"name": "StatefulPartitionedCall/transpose_132/perm", "op": "Const", "attr": {"value": {"tensor": {"dtype": "DT_INT32", "tensorShape": {"dim": [{"size": "4"}]}}}, "dtype": {"type": "DT_INT32"}}}, {"name": "StatefulPartitionedCall/transpose_134/perm", "op": "Const", "attr": {"value": {"tensor": {"dtype": "DT_INT32", "tensorShape": {"dim": [{"size": "4"}]}}}, "dtype": {"type": "DT_INT32"}}}, {"name": "StatefulPartitionedCall/split_41", "op": "Const", "attr": {"value": {"tensor": {"dtype": "DT_FLOAT", "tensorShape": {"dim": [{"size": "1"}, {"size": "1"}, {"size": "64"}, {"size": "64"}]}}}, "dtype": {"type": "DT_FLOAT"}}}, {"name": "unknown_84", "op": "Const", "attr": {"dtype": {"type": "DT_FLOAT"}, "value": {"tensor": {"dtype": "DT_FLOAT", "tensorShape": {"dim": [{"size": "64"}]}}}}}, {"name": "StatefulPartitionedCall/transpose_135/perm", "op": "Const", "attr": {"value": {"tensor": {"dtype": "DT_INT32", "tensorShape": {"dim": [{"size": "4"}]}}}, "dtype": {"type": "DT_INT32"}}}, {"name": "StatefulPartitionedCall/Const_15", "op": "Const", "attr": {"value": {"tensor": {"dtype": "DT_INT32", "tensorShape": {"dim": [{"size": "4"}, {"size": "2"}]}}}, "dtype": {"type": "DT_INT32"}}}, {"name": "StatefulPartitionedCall/transpose_137/perm", "op": "Const", "attr": {"value": {"tensor": {"dtype": "DT_INT32", "tensorShape": {"dim": [{"size": "4"}]}}}, "dtype": {"type": "DT_INT32"}}}, {"name": "StatefulPartitionedCall/split_42", "op": "Const", "attr": {"value": {"tensor": {"dtype": "DT_FLOAT", "tensorShape": {"dim": [{"size": "3"}, {"size": "3"}, {"size": "64"}, {"size": "64"}]}}}, "dtype": {"type": "DT_FLOAT"}}}, {"name": "unknown_86", "op": "Const", "attr": {"value": {"tensor": {"dtype": "DT_FLOAT", "tensorShape": {"dim": [{"size": "64"}]}}}, "dtype": {"type": "DT_FLOAT"}}}, {"name": "StatefulPartitionedCall/transpose_138/perm", "op": "Const", "attr": {"dtype": {"type": "DT_INT32"}, "value": {"tensor": {"dtype": "DT_INT32", "tensorShape": {"dim": [{"size": "4"}]}}}}}, {"name": "StatefulPartitionedCall/transpose_128/perm", "op": "Const", "attr": {"dtype": {"type": "DT_INT32"}, "value": {"tensor": {"dtype": "DT_INT32", "tensorShape": {"dim": [{"size": "4"}]}}}}}, {"name": "StatefulPartitionedCall/Cast_3", "op": "Const", "attr": {"dtype": {"type": "DT_INT32"}, "value": {"tensor": {"dtype": "DT_INT32", "tensorShape": {"dim": [{"size": "2"}]}}}}}, {"name": "StatefulPartitionedCall/transpose_129/perm", "op": "Const", "attr": {"dtype": {"type": "DT_INT32"}, "value": {"tensor": {"dtype": "DT_INT32", "tensorShape": {"dim": [{"size": "4"}]}}}}}, {"name": "StatefulPartitionedCall/onnx_tf_prefix_Concat_141/axis", "op": "Const", "attr": {"value": {"tensor": {"dtype": "DT_INT32", "tensorShape": {}}}, "dtype": {"type": "DT_INT32"}}}, {"name": "StatefulPartitionedCall/transpose_140/perm", "op": "Const", "attr": {"value": {"tensor": {"dtype": "DT_INT32", "tensorShape": {"dim": [{"size": "4"}]}}}, "dtype": {"type": "DT_INT32"}}}, {"name": "StatefulPartitionedCall/split_43", "op": "Const", "attr": {"value": {"tensor": {"dtype": "DT_FLOAT", "tensorShape": {"dim": [{"size": "1"}, {"size": "1"}, {"size": "256"}, {"size": "64"}]}}}, "dtype": {"type": "DT_FLOAT"}}}, {"name": "unknown_88", "op": "Const", "attr": {"value": {"tensor": {"dtype": "DT_FLOAT", "tensorShape": {"dim": [{"size": "64"}]}}}, "dtype": {"type": "DT_FLOAT"}}}, {"name": "StatefulPartitionedCall/transpose_141/perm", "op": "Const", "attr": {"value": {"tensor": {"dtype": "DT_INT32", "tensorShape": {"dim": [{"size": "4"}]}}}, "dtype": {"type": "DT_INT32"}}}, {"name": "StatefulPartitionedCall/onnx_tf_prefix_Concat_154/axis", "op": "Const", "attr": {"value": {"tensor": {"dtype": "DT_INT32", "tensorShape": {}}}, "dtype": {"type": "DT_INT32"}}}, {"name": "StatefulPartitionedCall/transpose_143/perm", "op": "Const", "attr": {"value": {"tensor": {"dtype": "DT_INT32", "tensorShape": {"dim": [{"size": "4"}]}}}, "dtype": {"type": "DT_INT32"}}}, {"name": "StatefulPartitionedCall/split_44", "op": "Const", "attr": {"value": {"tensor": {"dtype": "DT_FLOAT", "tensorShape": {"dim": [{"size": "1"}, {"size": "1"}, {"size": "128"}, {"size": "128"}]}}}, "dtype": {"type": "DT_FLOAT"}}}, {"name": "unknown_90", "op": "Const", "attr": {"dtype": {"type": "DT_FLOAT"}, "value": {"tensor": {"dtype": "DT_FLOAT", "tensorShape": {"dim": [{"size": "128"}]}}}}}, {"name": "StatefulPartitionedCall/transpose_144/perm", "op": "Const", "attr": {"dtype": {"type": "DT_INT32"}, "value": {"tensor": {"dtype": "DT_INT32", "tensorShape": {"dim": [{"size": "4"}]}}}}}, {"name": "StatefulPartitionedCall/Const_16", "op": "Const", "attr": {"value": {"tensor": {"dtype": "DT_INT32", "tensorShape": {"dim": [{"size": "4"}, {"size": "2"}]}}}, "dtype": {"type": "DT_INT32"}}}, {"name": "StatefulPartitionedCall/transpose_146/perm", "op": "Const", "attr": {"value": {"tensor": {"dtype": "DT_INT32", "tensorShape": {"dim": [{"size": "4"}]}}}, "dtype": {"type": "DT_INT32"}}}, {"name": "StatefulPartitionedCall/split_45", "op": "Const", "attr": {"value": {"tensor": {"dtype": "DT_FLOAT", "tensorShape": {"dim": [{"size": "3"}, {"size": "3"}, {"size": "128"}, {"size": "128"}]}}}, "dtype": {"type": "DT_FLOAT"}}}, {"name": "unknown_92", "op": "Const", "attr": {"value": {"tensor": {"dtype": "DT_FLOAT", "tensorShape": {"dim": [{"size": "128"}]}}}, "dtype": {"type": "DT_FLOAT"}}}, {"name": "StatefulPartitionedCall/transpose_147/perm", "op": "Const", "attr": {"dtype": {"type": "DT_INT32"}, "value": {"tensor": {"dtype": "DT_INT32", "tensorShape": {"dim": [{"size": "4"}]}}}}}, {"name": "StatefulPartitionedCall/transpose_111/perm", "op": "Const", "attr": {"value": {"tensor": {"dtype": "DT_INT32", "tensorShape": {"dim": [{"size": "4"}]}}}, "dtype": {"type": "DT_INT32"}}}, {"name": "StatefulPartitionedCall/split_34", "op": "Const", "attr": {"value": {"tensor": {"dtype": "DT_FLOAT", "tensorShape": {"dim": [{"size": "1"}, {"size": "1"}, {"size": "512"}, {"size": "128"}]}}}, "dtype": {"type": "DT_FLOAT"}}}, {"name": "unknown_69", "op": "Const", "attr": {"value": {"tensor": {"dtype": "DT_FLOAT", "tensorShape": {"dim": [{"size": "128"}]}}}, "dtype": {"type": "DT_FLOAT"}}}, {"name": "StatefulPartitionedCall/transpose_112/perm", "op": "Const", "attr": {"dtype": {"type": "DT_INT32"}, "value": {"tensor": {"dtype": "DT_INT32", "tensorShape": {"dim": [{"size": "4"}]}}}}}, {"name": "StatefulPartitionedCall/transpose_114/perm", "op": "Const", "attr": {"dtype": {"type": "DT_INT32"}, "value": {"tensor": {"dtype": "DT_INT32", "tensorShape": {"dim": [{"size": "4"}]}}}}}, {"name": "StatefulPartitionedCall/split_35", "op": "Const", "attr": {"value": {"tensor": {"dtype": "DT_FLOAT", "tensorShape": {"dim": [{"size": "1"}, {"size": "1"}, {"size": "128"}, {"size": "128"}]}}}, "dtype": {"type": "DT_FLOAT"}}}, {"name": "unknown_71", "op": "Const", "attr": {"value": {"tensor": {"dtype": "DT_FLOAT", "tensorShape": {"dim": [{"size": "128"}]}}}, "dtype": {"type": "DT_FLOAT"}}}, {"name": "StatefulPartitionedCall/transpose_115/perm", "op": "Const", "attr": {"dtype": {"type": "DT_INT32"}, "value": {"tensor": {"dtype": "DT_INT32", "tensorShape": {"dim": [{"size": "4"}]}}}}}, {"name": "StatefulPartitionedCall/Const_13", "op": "Const", "attr": {"value": {"tensor": {"dtype": "DT_INT32", "tensorShape": {"dim": [{"size": "4"}, {"size": "2"}]}}}, "dtype": {"type": "DT_INT32"}}}, {"name": "StatefulPartitionedCall/transpose_117/perm", "op": "Const", "attr": {"value": {"tensor": {"dtype": "DT_INT32", "tensorShape": {"dim": [{"size": "4"}]}}}, "dtype": {"type": "DT_INT32"}}}, {"name": "StatefulPartitionedCall/split_36", "op": "Const", "attr": {"value": {"tensor": {"dtype": "DT_FLOAT", "tensorShape": {"dim": [{"size": "3"}, {"size": "3"}, {"size": "128"}, {"size": "128"}]}}}, "dtype": {"type": "DT_FLOAT"}}}, {"name": "unknown_73", "op": "Const", "attr": {"dtype": {"type": "DT_FLOAT"}, "value": {"tensor": {"dtype": "DT_FLOAT", "tensorShape": {"dim": [{"size": "128"}]}}}}}, {"name": "StatefulPartitionedCall/transpose_118/perm", "op": "Const", "attr": {"value": {"tensor": {"dtype": "DT_INT32", "tensorShape": {"dim": [{"size": "4"}]}}}, "dtype": {"type": "DT_INT32"}}}, {"name": "StatefulPartitionedCall/transpose_108/perm", "op": "Const", "attr": {"dtype": {"type": "DT_INT32"}, "value": {"tensor": {"dtype": "DT_INT32", "tensorShape": {"dim": [{"size": "4"}]}}}}}, {"name": "StatefulPartitionedCall/Cast_1", "op": "Const", "attr": {"value": {"tensor": {"dtype": "DT_INT32", "tensorShape": {"dim": [{"size": "2"}]}}}, "dtype": {"type": "DT_INT32"}}}, {"name": "StatefulPartitionedCall/transpose_109/perm", "op": "Const", "attr": {"dtype": {"type": "DT_INT32"}, "value": {"tensor": {"dtype": "DT_INT32", "tensorShape": {"dim": [{"size": "4"}]}}}}}, {"name": "StatefulPartitionedCall/onnx_tf_prefix_Concat_119/axis", "op": "Const", "attr": {"value": {"tensor": {"dtype": "DT_INT32", "tensorShape": {}}}, "dtype": {"type": "DT_INT32"}}}, {"name": "StatefulPartitionedCall/transpose_120/perm", "op": "Const", "attr": {"dtype": {"type": "DT_INT32"}, "value": {"tensor": {"dtype": "DT_INT32", "tensorShape": {"dim": [{"size": "4"}]}}}}}, {"name": "StatefulPartitionedCall/split_37", "op": "Const", "attr": {"value": {"tensor": {"dtype": "DT_FLOAT", "tensorShape": {"dim": [{"size": "1"}, {"size": "1"}, {"size": "512"}, {"size": "128"}]}}}, "dtype": {"type": "DT_FLOAT"}}}, {"name": "unknown_75", "op": "Const", "attr": {"value": {"tensor": {"dtype": "DT_FLOAT", "tensorShape": {"dim": [{"size": "128"}]}}}, "dtype": {"type": "DT_FLOAT"}}}, {"name": "StatefulPartitionedCall/transpose_121/perm", "op": "Const", "attr": {"dtype": {"type": "DT_INT32"}, "value": {"tensor": {"dtype": "DT_INT32", "tensorShape": {"dim": [{"size": "4"}]}}}}}, {"name": "StatefulPartitionedCall/onnx_tf_prefix_Concat_132/axis", "op": "Const", "attr": {"value": {"tensor": {"dtype": "DT_INT32", "tensorShape": {}}}, "dtype": {"type": "DT_INT32"}}}, {"name": "StatefulPartitionedCall/transpose_123/perm", "op": "Const", "attr": {"dtype": {"type": "DT_INT32"}, "value": {"tensor": {"dtype": "DT_INT32", "tensorShape": {"dim": [{"size": "4"}]}}}}}, {"name": "StatefulPartitionedCall/split_38", "op": "Const", "attr": {"value": {"tensor": {"dtype": "DT_FLOAT", "tensorShape": {"dim": [{"size": "1"}, {"size": "1"}, {"size": "256"}, {"size": "256"}]}}}, "dtype": {"type": "DT_FLOAT"}}}, {"name": "unknown_77", "op": "Const", "attr": {"dtype": {"type": "DT_FLOAT"}, "value": {"tensor": {"dtype": "DT_FLOAT", "tensorShape": {"dim": [{"size": "256"}]}}}}}, {"name": "StatefulPartitionedCall/transpose_124/perm", "op": "Const", "attr": {"value": {"tensor": {"dtype": "DT_INT32", "tensorShape": {"dim": [{"size": "4"}]}}}, "dtype": {"type": "DT_INT32"}}}, {"name": "StatefulPartitionedCall/transpose_126/perm", "op": "Const", "attr": {"value": {"tensor": {"dtype": "DT_INT32", "tensorShape": {"dim": [{"size": "4"}]}}}, "dtype": {"type": "DT_INT32"}}}, {"name": "StatefulPartitionedCall/split_39", "op": "Const", "attr": {"value": {"tensor": {"dtype": "DT_FLOAT", "tensorShape": {"dim": [{"size": "1"}, {"size": "1"}, {"size": "256"}, {"size": "128"}]}}}, "dtype": {"type": "DT_FLOAT"}}}, {"name": "unknown_79", "op": "Const", "attr": {"dtype": {"type": "DT_FLOAT"}, "value": {"tensor": {"dtype": "DT_FLOAT", "tensorShape": {"dim": [{"size": "128"}]}}}}}, {"name": "StatefulPartitionedCall/transpose_127/perm", "op": "Const", "attr": {"dtype": {"type": "DT_INT32"}, "value": {"tensor": {"dtype": "DT_INT32", "tensorShape": {"dim": [{"size": "4"}]}}}}}, {"name": "StatefulPartitionedCall/onnx_tf_prefix_Concat_161/axis", "op": "Const", "attr": {"value": {"tensor": {"dtype": "DT_INT32", "tensorShape": {}}}, "dtype": {"type": "DT_INT32"}}}, {"name": "StatefulPartitionedCall/transpose_158/perm", "op": "Const", "attr": {"value": {"tensor": {"dtype": "DT_INT32", "tensorShape": {"dim": [{"size": "4"}]}}}, "dtype": {"type": "DT_INT32"}}}, {"name": "StatefulPartitionedCall/split_49", "op": "Const", "attr": {"dtype": {"type": "DT_FLOAT"}, "value": {"tensor": {"dtype": "DT_FLOAT", "tensorShape": {"dim": [{"size": "1"}, {"size": "1"}, {"size": "256"}, {"size": "128"}]}}}}}, {"name": "unknown_100", "op": "Const", "attr": {"value": {"tensor": {"dtype": "DT_FLOAT", "tensorShape": {"dim": [{"size": "128"}]}}}, "dtype": {"type": "DT_FLOAT"}}}, {"name": "StatefulPartitionedCall/transpose_159/perm", "op": "Const", "attr": {"dtype": {"type": "DT_INT32"}, "value": {"tensor": {"dtype": "DT_INT32", "tensorShape": {"dim": [{"size": "4"}]}}}}}, {"name": "StatefulPartitionedCall/onnx_tf_prefix_Concat_174/axis", "op": "Const", "attr": {"dtype": {"type": "DT_INT32"}, "value": {"tensor": {"dtype": "DT_INT32", "tensorShape": {}}}}}, {"name": "StatefulPartitionedCall/transpose_161/perm", "op": "Const", "attr": {"value": {"tensor": {"dtype": "DT_INT32", "tensorShape": {"dim": [{"size": "4"}]}}}, "dtype": {"type": "DT_INT32"}}}, {"name": "StatefulPartitionedCall/split_50", "op": "Const", "attr": {"dtype": {"type": "DT_FLOAT"}, "value": {"tensor": {"dtype": "DT_FLOAT", "tensorShape": {"dim": [{"size": "1"}, {"size": "1"}, {"size": "256"}, {"size": "256"}]}}}}}, {"name": "unknown_102", "op": "Const", "attr": {"value": {"tensor": {"dtype": "DT_FLOAT", "tensorShape": {"dim": [{"size": "256"}]}}}, "dtype": {"type": "DT_FLOAT"}}}, {"name": "StatefulPartitionedCall/transpose_162/perm", "op": "Const", "attr": {"value": {"tensor": {"dtype": "DT_INT32", "tensorShape": {"dim": [{"size": "4"}]}}}, "dtype": {"type": "DT_INT32"}}}, {"name": "StatefulPartitionedCall/Const_18", "op": "Const", "attr": {"value": {"tensor": {"dtype": "DT_INT32", "tensorShape": {"dim": [{"size": "4"}, {"size": "2"}]}}}, "dtype": {"type": "DT_INT32"}}}, {"name": "StatefulPartitionedCall/transpose_164/perm", "op": "Const", "attr": {"value": {"tensor": {"dtype": "DT_INT32", "tensorShape": {"dim": [{"size": "4"}]}}}, "dtype": {"type": "DT_INT32"}}}, {"name": "StatefulPartitionedCall/split_51", "op": "Const", "attr": {"value": {"tensor": {"dtype": "DT_FLOAT", "tensorShape": {"dim": [{"size": "3"}, {"size": "3"}, {"size": "256"}, {"size": "256"}]}}}, "dtype": {"type": "DT_FLOAT"}}}, {"name": "unknown_104", "op": "Const", "attr": {"dtype": {"type": "DT_FLOAT"}, "value": {"tensor": {"dtype": "DT_FLOAT", "tensorShape": {"dim": [{"size": "256"}]}}}}}, {"name": "StatefulPartitionedCall/transpose_165/perm", "op": "Const", "attr": {"dtype": {"type": "DT_INT32"}, "value": {"tensor": {"dtype": "DT_INT32", "tensorShape": {"dim": [{"size": "4"}]}}}}}, {"name": "StatefulPartitionedCall/transpose_97/perm", "op": "Const", "attr": {"dtype": {"type": "DT_INT32"}, "value": {"tensor": {"dtype": "DT_INT32", "tensorShape": {"dim": [{"size": "4"}]}}}}}, {"name": "StatefulPartitionedCall/transpose_99/perm", "op": "Const", "attr": {"dtype": {"type": "DT_INT32"}, "value": {"tensor": {"dtype": "DT_INT32", "tensorShape": {"dim": [{"size": "4"}]}}}}}, {"name": "StatefulPartitionedCall/transpose_79/perm", "op": "Const", "attr": {"value": {"tensor": {"dtype": "DT_INT32", "tensorShape": {"dim": [{"size": "4"}]}}}, "dtype": {"type": "DT_INT32"}}}, {"name": "StatefulPartitionedCall/split_26", "op": "Const", "attr": {"dtype": {"type": "DT_FLOAT"}, "value": {"tensor": {"dtype": "DT_FLOAT", "tensorShape": {"dim": [{"size": "1"}, {"size": "1"}, {"size": "512"}, {"size": "256"}]}}}}}, {"name": "unknown_52", "op": "Const", "attr": {"value": {"tensor": {"dtype": "DT_FLOAT", "tensorShape": {"dim": [{"size": "256"}]}}}, "dtype": {"type": "DT_FLOAT"}}}, {"name": "StatefulPartitionedCall/transpose_80/perm", "op": "Const", "attr": {"value": {"tensor": {"dtype": "DT_INT32", "tensorShape": {"dim": [{"size": "4"}]}}}, "dtype": {"type": "DT_INT32"}}}, {"name": "StatefulPartitionedCall/transpose_82/perm", "op": "Const", "attr": {"dtype": {"type": "DT_INT32"}, "value": {"tensor": {"dtype": "DT_INT32", "tensorShape": {"dim": [{"size": "4"}]}}}}}, {"name": "StatefulPartitionedCall/split_27", "op": "Const", "attr": {"value": {"tensor": {"dtype": "DT_FLOAT", "tensorShape": {"dim": [{"size": "1"}, {"size": "1"}, {"size": "256"}, {"size": "256"}]}}}, "dtype": {"type": "DT_FLOAT"}}}, {"name": "unknown_54", "op": "Const", "attr": {"dtype": {"type": "DT_FLOAT"}, "value": {"tensor": {"dtype": "DT_FLOAT", "tensorShape": {"dim": [{"size": "256"}]}}}}}, {"name": "StatefulPartitionedCall/transpose_83/perm", "op": "Const", "attr": {"dtype": {"type": "DT_INT32"}, "value": {"tensor": {"dtype": "DT_INT32", "tensorShape": {"dim": [{"size": "4"}]}}}}}, {"name": "StatefulPartitionedCall/Const_11", "op": "Const", "attr": {"value": {"tensor": {"dtype": "DT_INT32", "tensorShape": {"dim": [{"size": "4"}, {"size": "2"}]}}}, "dtype": {"type": "DT_INT32"}}}, {"name": "StatefulPartitionedCall/transpose_85/perm", "op": "Const", "attr": {"value": {"tensor": {"dtype": "DT_INT32", "tensorShape": {"dim": [{"size": "4"}]}}}, "dtype": {"type": "DT_INT32"}}}, {"name": "StatefulPartitionedCall/split_28", "op": "Const", "attr": {"value": {"tensor": {"dtype": "DT_FLOAT", "tensorShape": {"dim": [{"size": "3"}, {"size": "3"}, {"size": "256"}, {"size": "256"}]}}}, "dtype": {"type": "DT_FLOAT"}}}, {"name": "unknown_56", "op": "Const", "attr": {"value": {"tensor": {"dtype": "DT_FLOAT", "tensorShape": {"dim": [{"size": "256"}]}}}, "dtype": {"type": "DT_FLOAT"}}}, {"name": "StatefulPartitionedCall/transpose_86/perm", "op": "Const", "attr": {"dtype": {"type": "DT_INT32"}, "value": {"tensor": {"dtype": "DT_INT32", "tensorShape": {"dim": [{"size": "4"}]}}}}}, {"name": "StatefulPartitionedCall/transpose_49/perm", "op": "Const", "attr": {"value": {"tensor": {"dtype": "DT_INT32", "tensorShape": {"dim": [{"size": "4"}]}}}, "dtype": {"type": "DT_INT32"}}}, {"name": "StatefulPartitionedCall/split_16", "op": "Const", "attr": {"value": {"tensor": {"dtype": "DT_FLOAT", "tensorShape": {"dim": [{"size": "1"}, {"size": "1"}, {"size": "256"}, {"size": "128"}]}}}, "dtype": {"type": "DT_FLOAT"}}}, {"name": "unknown_32", "op": "Const", "attr": {"value": {"tensor": {"dtype": "DT_FLOAT", "tensorShape": {"dim": [{"size": "128"}]}}}, "dtype": {"type": "DT_FLOAT"}}}, {"name": "StatefulPartitionedCall/transpose_50/perm", "op": "Const", "attr": {"value": {"tensor": {"dtype": "DT_INT32", "tensorShape": {"dim": [{"size": "4"}]}}}, "dtype": {"type": "DT_INT32"}}}, {"name": "StatefulPartitionedCall/transpose_52/perm", "op": "Const", "attr": {"value": {"tensor": {"dtype": "DT_INT32", "tensorShape": {"dim": [{"size": "4"}]}}}, "dtype": {"type": "DT_INT32"}}}, {"name": "StatefulPartitionedCall/split_17", "op": "Const", "attr": {"dtype": {"type": "DT_FLOAT"}, "value": {"tensor": {"dtype": "DT_FLOAT", "tensorShape": {"dim": [{"size": "1"}, {"size": "1"}, {"size": "128"}, {"size": "128"}]}}}}}, {"name": "unknown_34", "op": "Const", "attr": {"value": {"tensor": {"dtype": "DT_FLOAT", "tensorShape": {"dim": [{"size": "128"}]}}}, "dtype": {"type": "DT_FLOAT"}}}, {"name": "StatefulPartitionedCall/transpose_53/perm", "op": "Const", "attr": {"dtype": {"type": "DT_INT32"}, "value": {"tensor": {"dtype": "DT_INT32", "tensorShape": {"dim": [{"size": "4"}]}}}}}, {"name": "StatefulPartitionedCall/Const_7", "op": "Const", "attr": {"value": {"tensor": {"dtype": "DT_INT32", "tensorShape": {"dim": [{"size": "4"}, {"size": "2"}]}}}, "dtype": {"type": "DT_INT32"}}}, {"name": "StatefulPartitionedCall/transpose_55/perm", "op": "Const", "attr": {"value": {"tensor": {"dtype": "DT_INT32", "tensorShape": {"dim": [{"size": "4"}]}}}, "dtype": {"type": "DT_INT32"}}}, {"name": "StatefulPartitionedCall/split_18", "op": "Const", "attr": {"dtype": {"type": "DT_FLOAT"}, "value": {"tensor": {"dtype": "DT_FLOAT", "tensorShape": {"dim": [{"size": "3"}, {"size": "3"}, {"size": "128"}, {"size": "128"}]}}}}}, {"name": "unknown_36", "op": "Const", "attr": {"value": {"tensor": {"dtype": "DT_FLOAT", "tensorShape": {"dim": [{"size": "128"}]}}}, "dtype": {"type": "DT_FLOAT"}}}, {"name": "StatefulPartitionedCall/transpose_56/perm", "op": "Const", "attr": {"value": {"tensor": {"dtype": "DT_INT32", "tensorShape": {"dim": [{"size": "4"}]}}}, "dtype": {"type": "DT_INT32"}}}, {"name": "StatefulPartitionedCall/transpose_58/perm", "op": "Const", "attr": {"dtype": {"type": "DT_INT32"}, "value": {"tensor": {"dtype": "DT_INT32", "tensorShape": {"dim": [{"size": "4"}]}}}}}, {"name": "StatefulPartitionedCall/split_19", "op": "Const", "attr": {"value": {"tensor": {"dtype": "DT_FLOAT", "tensorShape": {"dim": [{"size": "1"}, {"size": "1"}, {"size": "128"}, {"size": "128"}]}}}, "dtype": {"type": "DT_FLOAT"}}}, {"name": "unknown_38", "op": "Const", "attr": {"dtype": {"type": "DT_FLOAT"}, "value": {"tensor": {"dtype": "DT_FLOAT", "tensorShape": {"dim": [{"size": "128"}]}}}}}, {"name": "StatefulPartitionedCall/transpose_59/perm", "op": "Const", "attr": {"dtype": {"type": "DT_INT32"}, "value": {"tensor": {"dtype": "DT_INT32", "tensorShape": {"dim": [{"size": "4"}]}}}}}, {"name": "StatefulPartitionedCall/Const_8", "op": "Const", "attr": {"value": {"tensor": {"dtype": "DT_INT32", "tensorShape": {"dim": [{"size": "4"}, {"size": "2"}]}}}, "dtype": {"type": "DT_INT32"}}}, {"name": "StatefulPartitionedCall/transpose_61/perm", "op": "Const", "attr": {"value": {"tensor": {"dtype": "DT_INT32", "tensorShape": {"dim": [{"size": "4"}]}}}, "dtype": {"type": "DT_INT32"}}}, {"name": "StatefulPartitionedCall/split_20", "op": "Const", "attr": {"value": {"tensor": {"dtype": "DT_FLOAT", "tensorShape": {"dim": [{"size": "3"}, {"size": "3"}, {"size": "128"}, {"size": "128"}]}}}, "dtype": {"type": "DT_FLOAT"}}}, {"name": "unknown_40", "op": "Const", "attr": {"dtype": {"type": "DT_FLOAT"}, "value": {"tensor": {"dtype": "DT_FLOAT", "tensorShape": {"dim": [{"size": "128"}]}}}}}, {"name": "StatefulPartitionedCall/transpose_62/perm", "op": "Const", "attr": {"value": {"tensor": {"dtype": "DT_INT32", "tensorShape": {"dim": [{"size": "4"}]}}}, "dtype": {"type": "DT_INT32"}}}, {"name": "StatefulPartitionedCall/transpose_64/perm", "op": "Const", "attr": {"value": {"tensor": {"dtype": "DT_INT32", "tensorShape": {"dim": [{"size": "4"}]}}}, "dtype": {"type": "DT_INT32"}}}, {"name": "StatefulPartitionedCall/split_21", "op": "Const", "attr": {"value": {"tensor": {"dtype": "DT_FLOAT", "tensorShape": {"dim": [{"size": "1"}, {"size": "1"}, {"size": "128"}, {"size": "128"}]}}}, "dtype": {"type": "DT_FLOAT"}}}, {"name": "unknown_42", "op": "Const", "attr": {"value": {"tensor": {"dtype": "DT_FLOAT", "tensorShape": {"dim": [{"size": "128"}]}}}, "dtype": {"type": "DT_FLOAT"}}}, {"name": "StatefulPartitionedCall/transpose_65/perm", "op": "Const", "attr": {"value": {"tensor": {"dtype": "DT_INT32", "tensorShape": {"dim": [{"size": "4"}]}}}, "dtype": {"type": "DT_INT32"}}}, {"name": "StatefulPartitionedCall/Const_9", "op": "Const", "attr": {"value": {"tensor": {"dtype": "DT_INT32", "tensorShape": {"dim": [{"size": "4"}, {"size": "2"}]}}}, "dtype": {"type": "DT_INT32"}}}, {"name": "StatefulPartitionedCall/transpose_67/perm", "op": "Const", "attr": {"value": {"tensor": {"dtype": "DT_INT32", "tensorShape": {"dim": [{"size": "4"}]}}}, "dtype": {"type": "DT_INT32"}}}, {"name": "StatefulPartitionedCall/split_22", "op": "Const", "attr": {"dtype": {"type": "DT_FLOAT"}, "value": {"tensor": {"dtype": "DT_FLOAT", "tensorShape": {"dim": [{"size": "3"}, {"size": "3"}, {"size": "128"}, {"size": "128"}]}}}}}, {"name": "unknown_44", "op": "Const", "attr": {"value": {"tensor": {"dtype": "DT_FLOAT", "tensorShape": {"dim": [{"size": "128"}]}}}, "dtype": {"type": "DT_FLOAT"}}}, {"name": "StatefulPartitionedCall/transpose_68/perm", "op": "Const", "attr": {"dtype": {"type": "DT_INT32"}, "value": {"tensor": {"dtype": "DT_INT32", "tensorShape": {"dim": [{"size": "4"}]}}}}}, {"name": "StatefulPartitionedCall/transpose_25/perm", "op": "Const", "attr": {"dtype": {"type": "DT_INT32"}, "value": {"tensor": {"dtype": "DT_INT32", "tensorShape": {"dim": [{"size": "4"}]}}}}}, {"name": "StatefulPartitionedCall/split_8", "op": "Const", "attr": {"dtype": {"type": "DT_FLOAT"}, "value": {"tensor": {"dtype": "DT_FLOAT", "tensorShape": {"dim": [{"size": "1"}, {"size": "1"}, {"size": "128"}, {"size": "64"}]}}}}}, {"name": "unknown_16", "op": "Const", "attr": {"dtype": {"type": "DT_FLOAT"}, "value": {"tensor": {"dtype": "DT_FLOAT", "tensorShape": {"dim": [{"size": "64"}]}}}}}, {"name": "StatefulPartitionedCall/transpose_26/perm", "op": "Const", "attr": {"dtype": {"type": "DT_INT32"}, "value": {"tensor": {"dtype": "DT_INT32", "tensorShape": {"dim": [{"size": "4"}]}}}}}, {"name": "StatefulPartitionedCall/transpose_28/perm", "op": "Const", "attr": {"value": {"tensor": {"dtype": "DT_INT32", "tensorShape": {"dim": [{"size": "4"}]}}}, "dtype": {"type": "DT_INT32"}}}, {"name": "StatefulPartitionedCall/split_9", "op": "Const", "attr": {"value": {"tensor": {"dtype": "DT_FLOAT", "tensorShape": {"dim": [{"size": "1"}, {"size": "1"}, {"size": "64"}, {"size": "64"}]}}}, "dtype": {"type": "DT_FLOAT"}}}, {"name": "unknown_18", "op": "Const", "attr": {"value": {"tensor": {"dtype": "DT_FLOAT", "tensorShape": {"dim": [{"size": "64"}]}}}, "dtype": {"type": "DT_FLOAT"}}}, {"name": "StatefulPartitionedCall/transpose_29/perm", "op": "Const", "attr": {"dtype": {"type": "DT_INT32"}, "value": {"tensor": {"dtype": "DT_INT32", "tensorShape": {"dim": [{"size": "4"}]}}}}}, {"name": "StatefulPartitionedCall/Const_4", "op": "Const", "attr": {"value": {"tensor": {"dtype": "DT_INT32", "tensorShape": {"dim": [{"size": "4"}, {"size": "2"}]}}}, "dtype": {"type": "DT_INT32"}}}, {"name": "StatefulPartitionedCall/transpose_31/perm", "op": "Const", "attr": {"value": {"tensor": {"dtype": "DT_INT32", "tensorShape": {"dim": [{"size": "4"}]}}}, "dtype": {"type": "DT_INT32"}}}, {"name": "StatefulPartitionedCall/split_10", "op": "Const", "attr": {"dtype": {"type": "DT_FLOAT"}, "value": {"tensor": {"dtype": "DT_FLOAT", "tensorShape": {"dim": [{"size": "3"}, {"size": "3"}, {"size": "64"}, {"size": "64"}]}}}}}, {"name": "unknown_20", "op": "Const", "attr": {"value": {"tensor": {"dtype": "DT_FLOAT", "tensorShape": {"dim": [{"size": "64"}]}}}, "dtype": {"type": "DT_FLOAT"}}}, {"name": "StatefulPartitionedCall/transpose_32/perm", "op": "Const", "attr": {"dtype": {"type": "DT_INT32"}, "value": {"tensor": {"dtype": "DT_INT32", "tensorShape": {"dim": [{"size": "4"}]}}}}}, {"name": "StatefulPartitionedCall/transpose_34/perm", "op": "Const", "attr": {"dtype": {"type": "DT_INT32"}, "value": {"tensor": {"dtype": "DT_INT32", "tensorShape": {"dim": [{"size": "4"}]}}}}}, {"name": "StatefulPartitionedCall/split_11", "op": "Const", "attr": {"dtype": {"type": "DT_FLOAT"}, "value": {"tensor": {"dtype": "DT_FLOAT", "tensorShape": {"dim": [{"size": "1"}, {"size": "1"}, {"size": "64"}, {"size": "64"}]}}}}}, {"name": "unknown_22", "op": "Const", "attr": {"dtype": {"type": "DT_FLOAT"}, "value": {"tensor": {"dtype": "DT_FLOAT", "tensorShape": {"dim": [{"size": "64"}]}}}}}, {"name": "StatefulPartitionedCall/transpose_35/perm", "op": "Const", "attr": {"value": {"tensor": {"dtype": "DT_INT32", "tensorShape": {"dim": [{"size": "4"}]}}}, "dtype": {"type": "DT_INT32"}}}, {"name": "StatefulPartitionedCall/Const_5", "op": "Const", "attr": {"value": {"tensor": {"dtype": "DT_INT32", "tensorShape": {"dim": [{"size": "4"}, {"size": "2"}]}}}, "dtype": {"type": "DT_INT32"}}}, {"name": "StatefulPartitionedCall/transpose_37/perm", "op": "Const", "attr": {"dtype": {"type": "DT_INT32"}, "value": {"tensor": {"dtype": "DT_INT32", "tensorShape": {"dim": [{"size": "4"}]}}}}}, {"name": "StatefulPartitionedCall/split_12", "op": "Const", "attr": {"value": {"tensor": {"dtype": "DT_FLOAT", "tensorShape": {"dim": [{"size": "3"}, {"size": "3"}, {"size": "64"}, {"size": "64"}]}}}, "dtype": {"type": "DT_FLOAT"}}}, {"name": "unknown_24", "op": "Const", "attr": {"value": {"tensor": {"dtype": "DT_FLOAT", "tensorShape": {"dim": [{"size": "64"}]}}}, "dtype": {"type": "DT_FLOAT"}}}, {"name": "StatefulPartitionedCall/transpose_38/perm", "op": "Const", "attr": {"value": {"tensor": {"dtype": "DT_INT32", "tensorShape": {"dim": [{"size": "4"}]}}}, "dtype": {"type": "DT_INT32"}}}, {"name": "StatefulPartitionedCall/transpose_7/perm", "op": "Const", "attr": {"value": {"tensor": {"dtype": "DT_INT32", "tensorShape": {"dim": [{"size": "4"}]}}}, "dtype": {"type": "DT_INT32"}}}, {"name": "StatefulPartitionedCall/split_2", "op": "Const", "attr": {"value": {"tensor": {"dtype": "DT_FLOAT", "tensorShape": {"dim": [{"size": "1"}, {"size": "1"}, {"size": "64"}, {"size": "32"}]}}}, "dtype": {"type": "DT_FLOAT"}}}, {"name": "unknown_4", "op": "Const", "attr": {"value": {"tensor": {"dtype": "DT_FLOAT", "tensorShape": {"dim": [{"size": "32"}]}}}, "dtype": {"type": "DT_FLOAT"}}}, {"name": "StatefulPartitionedCall/transpose_8/perm", "op": "Const", "attr": {"value": {"tensor": {"dtype": "DT_INT32", "tensorShape": {"dim": [{"size": "4"}]}}}, "dtype": {"type": "DT_INT32"}}}, {"name": "StatefulPartitionedCall/transpose_10/perm", "op": "Const", "attr": {"value": {"tensor": {"dtype": "DT_INT32", "tensorShape": {"dim": [{"size": "4"}]}}}, "dtype": {"type": "DT_INT32"}}}, {"name": "StatefulPartitionedCall/split_3", "op": "Const", "attr": {"value": {"tensor": {"dtype": "DT_FLOAT", "tensorShape": {"dim": [{"size": "1"}, {"size": "1"}, {"size": "32"}, {"size": "32"}]}}}, "dtype": {"type": "DT_FLOAT"}}}, {"name": "unknown_6", "op": "Const", "attr": {"value": {"tensor": {"dtype": "DT_FLOAT", "tensorShape": {"dim": [{"size": "32"}]}}}, "dtype": {"type": "DT_FLOAT"}}}, {"name": "StatefulPartitionedCall/transpose_11/perm", "op": "Const", "attr": {"value": {"tensor": {"dtype": "DT_INT32", "tensorShape": {"dim": [{"size": "4"}]}}}, "dtype": {"type": "DT_INT32"}}}, {"name": "StatefulPartitionedCall/Const_2", "op": "Const", "attr": {"value": {"tensor": {"dtype": "DT_INT32", "tensorShape": {"dim": [{"size": "4"}, {"size": "2"}]}}}, "dtype": {"type": "DT_INT32"}}}, {"name": "StatefulPartitionedCall/transpose_13/perm", "op": "Const", "attr": {"dtype": {"type": "DT_INT32"}, "value": {"tensor": {"dtype": "DT_INT32", "tensorShape": {"dim": [{"size": "4"}]}}}}}, {"name": "StatefulPartitionedCall/split_4", "op": "Const", "attr": {"value": {"tensor": {"dtype": "DT_FLOAT", "tensorShape": {"dim": [{"size": "3"}, {"size": "3"}, {"size": "32"}, {"size": "32"}]}}}, "dtype": {"type": "DT_FLOAT"}}}, {"name": "unknown_8", "op": "Const", "attr": {"dtype": {"type": "DT_FLOAT"}, "value": {"tensor": {"dtype": "DT_FLOAT", "tensorShape": {"dim": [{"size": "32"}]}}}}}, {"name": "StatefulPartitionedCall/transpose_14/perm", "op": "Const", "attr": {"value": {"tensor": {"dtype": "DT_INT32", "tensorShape": {"dim": [{"size": "4"}]}}}, "dtype": {"type": "DT_INT32"}}}, {"name": "StatefulPartitionedCall/Const", "op": "Const", "attr": {"dtype": {"type": "DT_INT32"}, "value": {"tensor": {"dtype": "DT_INT32", "tensorShape": {"dim": [{"size": "4"}, {"size": "2"}]}}}}}, {"name": "StatefulPartitionedCall/transpose_1/perm", "op": "Const", "attr": {"value": {"tensor": {"dtype": "DT_INT32", "tensorShape": {"dim": [{"size": "4"}]}}}, "dtype": {"type": "DT_INT32"}}}, {"name": "StatefulPartitionedCall/split", "op": "Const", "attr": {"value": {"tensor": {"dtype": "DT_FLOAT", "tensorShape": {"dim": [{"size": "6"}, {"size": "6"}, {"size": "3"}, {"size": "32"}]}}}, "dtype": {"type": "DT_FLOAT"}}}, {"name": "unknown_0", "op": "Const", "attr": {"value": {"tensor": {"dtype": "DT_FLOAT", "tensorShape": {"dim": [{"size": "32"}]}}}, "dtype": {"type": "DT_FLOAT"}}}, {"name": "StatefulPartitionedCall/transpose_2/perm", "op": "Const", "attr": {"value": {"tensor": {"dtype": "DT_INT32", "tensorShape": {"dim": [{"size": "4"}]}}}, "dtype": {"type": "DT_INT32"}}}, {"name": "StatefulPartitionedCall/Const_1", "op": "Const", "attr": {"value": {"tensor": {"dtype": "DT_INT32", "tensorShape": {"dim": [{"size": "4"}, {"size": "2"}]}}}, "dtype": {"type": "DT_INT32"}}}, {"name": "StatefulPartitionedCall/transpose_4/perm", "op": "Const", "attr": {"dtype": {"type": "DT_INT32"}, "value": {"tensor": {"dtype": "DT_INT32", "tensorShape": {"dim": [{"size": "4"}]}}}}}, {"name": "StatefulPartitionedCall/split_1", "op": "Const", "attr": {"dtype": {"type": "DT_FLOAT"}, "value": {"tensor": {"dtype": "DT_FLOAT", "tensorShape": {"dim": [{"size": "3"}, {"size": "3"}, {"size": "32"}, {"size": "64"}]}}}}}, {"name": "unknown_2", "op": "Const", "attr": {"value": {"tensor": {"dtype": "DT_FLOAT", "tensorShape": {"dim": [{"size": "64"}]}}}, "dtype": {"type": "DT_FLOAT"}}}, {"name": "StatefulPartitionedCall/transpose_5/perm", "op": "Const", "attr": {"value": {"tensor": {"dtype": "DT_INT32", "tensorShape": {"dim": [{"size": "4"}]}}}, "dtype": {"type": "DT_INT32"}}}, {"name": "StatefulPartitionedCall/transpose_16/perm", "op": "Const", "attr": {"value": {"tensor": {"dtype": "DT_INT32", "tensorShape": {"dim": [{"size": "4"}]}}}, "dtype": {"type": "DT_INT32"}}}, {"name": "StatefulPartitionedCall/split_5", "op": "Const", "attr": {"dtype": {"type": "DT_FLOAT"}, "value": {"tensor": {"dtype": "DT_FLOAT", "tensorShape": {"dim": [{"size": "1"}, {"size": "1"}, {"size": "64"}, {"size": "32"}]}}}}}, {"name": "unknown_10", "op": "Const", "attr": {"dtype": {"type": "DT_FLOAT"}, "value": {"tensor": {"dtype": "DT_FLOAT", "tensorShape": {"dim": [{"size": "32"}]}}}}}, {"name": "StatefulPartitionedCall/transpose_17/perm", "op": "Const", "attr": {"value": {"tensor": {"dtype": "DT_INT32", "tensorShape": {"dim": [{"size": "4"}]}}}, "dtype": {"type": "DT_INT32"}}}, {"name": "StatefulPartitionedCall/onnx_tf_prefix_Concat_19/axis", "op": "Const", "attr": {"dtype": {"type": "DT_INT32"}, "value": {"tensor": {"dtype": "DT_INT32", "tensorShape": {}}}}}, {"name": "StatefulPartitionedCall/transpose_19/perm", "op": "Const", "attr": {"dtype": {"type": "DT_INT32"}, "value": {"tensor": {"dtype": "DT_INT32", "tensorShape": {"dim": [{"size": "4"}]}}}}}, {"name": "StatefulPartitionedCall/split_6", "op": "Const", "attr": {"value": {"tensor": {"dtype": "DT_FLOAT", "tensorShape": {"dim": [{"size": "1"}, {"size": "1"}, {"size": "64"}, {"size": "64"}]}}}, "dtype": {"type": "DT_FLOAT"}}}, {"name": "unknown_12", "op": "Const", "attr": {"dtype": {"type": "DT_FLOAT"}, "value": {"tensor": {"dtype": "DT_FLOAT", "tensorShape": {"dim": [{"size": "64"}]}}}}}, {"name": "StatefulPartitionedCall/transpose_20/perm", "op": "Const", "attr": {"dtype": {"type": "DT_INT32"}, "value": {"tensor": {"dtype": "DT_INT32", "tensorShape": {"dim": [{"size": "4"}]}}}}}, {"name": "StatefulPartitionedCall/Const_3", "op": "Const", "attr": {"dtype": {"type": "DT_INT32"}, "value": {"tensor": {"dtype": "DT_INT32", "tensorShape": {"dim": [{"size": "4"}, {"size": "2"}]}}}}}, {"name": "StatefulPartitionedCall/transpose_22/perm", "op": "Const", "attr": {"dtype": {"type": "DT_INT32"}, "value": {"tensor": {"dtype": "DT_INT32", "tensorShape": {"dim": [{"size": "4"}]}}}}}, {"name": "StatefulPartitionedCall/split_7", "op": "Const", "attr": {"dtype": {"type": "DT_FLOAT"}, "value": {"tensor": {"dtype": "DT_FLOAT", "tensorShape": {"dim": [{"size": "3"}, {"size": "3"}, {"size": "64"}, {"size": "128"}]}}}}}, {"name": "unknown_14", "op": "Const", "attr": {"value": {"tensor": {"dtype": "DT_FLOAT", "tensorShape": {"dim": [{"size": "128"}]}}}, "dtype": {"type": "DT_FLOAT"}}}, {"name": "StatefulPartitionedCall/transpose_23/perm", "op": "Const", "attr": {"dtype": {"type": "DT_INT32"}, "value": {"tensor": {"dtype": "DT_INT32", "tensorShape": {"dim": [{"size": "4"}]}}}}}, {"name": "StatefulPartitionedCall/transpose_40/perm", "op": "Const", "attr": {"value": {"tensor": {"dtype": "DT_INT32", "tensorShape": {"dim": [{"size": "4"}]}}}, "dtype": {"type": "DT_INT32"}}}, {"name": "StatefulPartitionedCall/split_13", "op": "Const", "attr": {"value": {"tensor": {"dtype": "DT_FLOAT", "tensorShape": {"dim": [{"size": "1"}, {"size": "1"}, {"size": "128"}, {"size": "64"}]}}}, "dtype": {"type": "DT_FLOAT"}}}, {"name": "unknown_26", "op": "Const", "attr": {"value": {"tensor": {"dtype": "DT_FLOAT", "tensorShape": {"dim": [{"size": "64"}]}}}, "dtype": {"type": "DT_FLOAT"}}}, {"name": "StatefulPartitionedCall/transpose_41/perm", "op": "Const", "attr": {"dtype": {"type": "DT_INT32"}, "value": {"tensor": {"dtype": "DT_INT32", "tensorShape": {"dim": [{"size": "4"}]}}}}}, {"name": "StatefulPartitionedCall/onnx_tf_prefix_Concat_46/axis", "op": "Const", "attr": {"value": {"tensor": {"dtype": "DT_INT32", "tensorShape": {}}}, "dtype": {"type": "DT_INT32"}}}, {"name": "StatefulPartitionedCall/transpose_43/perm", "op": "Const", "attr": {"value": {"tensor": {"dtype": "DT_INT32", "tensorShape": {"dim": [{"size": "4"}]}}}, "dtype": {"type": "DT_INT32"}}}, {"name": "StatefulPartitionedCall/split_14", "op": "Const", "attr": {"value": {"tensor": {"dtype": "DT_FLOAT", "tensorShape": {"dim": [{"size": "1"}, {"size": "1"}, {"size": "128"}, {"size": "128"}]}}}, "dtype": {"type": "DT_FLOAT"}}}, {"name": "unknown_28", "op": "Const", "attr": {"dtype": {"type": "DT_FLOAT"}, "value": {"tensor": {"dtype": "DT_FLOAT", "tensorShape": {"dim": [{"size": "128"}]}}}}}, {"name": "StatefulPartitionedCall/transpose_44/perm", "op": "Const", "attr": {"value": {"tensor": {"dtype": "DT_INT32", "tensorShape": {"dim": [{"size": "4"}]}}}, "dtype": {"type": "DT_INT32"}}}, {"name": "StatefulPartitionedCall/Const_6", "op": "Const", "attr": {"value": {"tensor": {"dtype": "DT_INT32", "tensorShape": {"dim": [{"size": "4"}, {"size": "2"}]}}}, "dtype": {"type": "DT_INT32"}}}, {"name": "StatefulPartitionedCall/transpose_46/perm", "op": "Const", "attr": {"dtype": {"type": "DT_INT32"}, "value": {"tensor": {"dtype": "DT_INT32", "tensorShape": {"dim": [{"size": "4"}]}}}}}, {"name": "StatefulPartitionedCall/split_15", "op": "Const", "attr": {"value": {"tensor": {"dtype": "DT_FLOAT", "tensorShape": {"dim": [{"size": "3"}, {"size": "3"}, {"size": "128"}, {"size": "256"}]}}}, "dtype": {"type": "DT_FLOAT"}}}, {"name": "unknown_30", "op": "Const", "attr": {"dtype": {"type": "DT_FLOAT"}, "value": {"tensor": {"dtype": "DT_FLOAT", "tensorShape": {"dim": [{"size": "256"}]}}}}}, {"name": "StatefulPartitionedCall/transpose_47/perm", "op": "Const", "attr": {"value": {"tensor": {"dtype": "DT_INT32", "tensorShape": {"dim": [{"size": "4"}]}}}, "dtype": {"type": "DT_INT32"}}}, {"name": "StatefulPartitionedCall/transpose_70/perm", "op": "Const", "attr": {"dtype": {"type": "DT_INT32"}, "value": {"tensor": {"dtype": "DT_INT32", "tensorShape": {"dim": [{"size": "4"}]}}}}}, {"name": "StatefulPartitionedCall/split_23", "op": "Const", "attr": {"value": {"tensor": {"dtype": "DT_FLOAT", "tensorShape": {"dim": [{"size": "1"}, {"size": "1"}, {"size": "256"}, {"size": "128"}]}}}, "dtype": {"type": "DT_FLOAT"}}}, {"name": "unknown_46", "op": "Const", "attr": {"dtype": {"type": "DT_FLOAT"}, "value": {"tensor": {"dtype": "DT_FLOAT", "tensorShape": {"dim": [{"size": "128"}]}}}}}, {"name": "StatefulPartitionedCall/transpose_71/perm", "op": "Const", "attr": {"dtype": {"type": "DT_INT32"}, "value": {"tensor": {"dtype": "DT_INT32", "tensorShape": {"dim": [{"size": "4"}]}}}}}, {"name": "StatefulPartitionedCall/onnx_tf_prefix_Concat_80/axis", "op": "Const", "attr": {"value": {"tensor": {"dtype": "DT_INT32", "tensorShape": {}}}, "dtype": {"type": "DT_INT32"}}}, {"name": "StatefulPartitionedCall/transpose_73/perm", "op": "Const", "attr": {"dtype": {"type": "DT_INT32"}, "value": {"tensor": {"dtype": "DT_INT32", "tensorShape": {"dim": [{"size": "4"}]}}}}}, {"name": "StatefulPartitionedCall/split_24", "op": "Const", "attr": {"value": {"tensor": {"dtype": "DT_FLOAT", "tensorShape": {"dim": [{"size": "1"}, {"size": "1"}, {"size": "256"}, {"size": "256"}]}}}, "dtype": {"type": "DT_FLOAT"}}}, {"name": "unknown_48", "op": "Const", "attr": {"dtype": {"type": "DT_FLOAT"}, "value": {"tensor": {"dtype": "DT_FLOAT", "tensorShape": {"dim": [{"size": "256"}]}}}}}, {"name": "StatefulPartitionedCall/transpose_74/perm", "op": "Const", "attr": {"value": {"tensor": {"dtype": "DT_INT32", "tensorShape": {"dim": [{"size": "4"}]}}}, "dtype": {"type": "DT_INT32"}}}, {"name": "StatefulPartitionedCall/Const_10", "op": "Const", "attr": {"dtype": {"type": "DT_INT32"}, "value": {"tensor": {"dtype": "DT_INT32", "tensorShape": {"dim": [{"size": "4"}, {"size": "2"}]}}}}}, {"name": "StatefulPartitionedCall/transpose_76/perm", "op": "Const", "attr": {"dtype": {"type": "DT_INT32"}, "value": {"tensor": {"dtype": "DT_INT32", "tensorShape": {"dim": [{"size": "4"}]}}}}}, {"name": "StatefulPartitionedCall/split_25", "op": "Const", "attr": {"dtype": {"type": "DT_FLOAT"}, "value": {"tensor": {"dtype": "DT_FLOAT", "tensorShape": {"dim": [{"size": "3"}, {"size": "3"}, {"size": "256"}, {"size": "512"}]}}}}}, {"name": "unknown_50", "op": "Const", "attr": {"dtype": {"type": "DT_FLOAT"}, "value": {"tensor": {"dtype": "DT_FLOAT", "tensorShape": {"dim": [{"size": "512"}]}}}}}, {"name": "StatefulPartitionedCall/transpose_77/perm", "op": "Const", "attr": {"dtype": {"type": "DT_INT32"}, "value": {"tensor": {"dtype": "DT_INT32", "tensorShape": {"dim": [{"size": "4"}]}}}}}, {"name": "StatefulPartitionedCall/transpose_88/perm", "op": "Const", "attr": {"value": {"tensor": {"dtype": "DT_INT32", "tensorShape": {"dim": [{"size": "4"}]}}}, "dtype": {"type": "DT_INT32"}}}, {"name": "StatefulPartitionedCall/split_29", "op": "Const", "attr": {"dtype": {"type": "DT_FLOAT"}, "value": {"tensor": {"dtype": "DT_FLOAT", "tensorShape": {"dim": [{"size": "1"}, {"size": "1"}, {"size": "512"}, {"size": "256"}]}}}}}, {"name": "unknown_58", "op": "Const", "attr": {"dtype": {"type": "DT_FLOAT"}, "value": {"tensor": {"dtype": "DT_FLOAT", "tensorShape": {"dim": [{"size": "256"}]}}}}}, {"name": "StatefulPartitionedCall/transpose_89/perm", "op": "Const", "attr": {"value": {"tensor": {"dtype": "DT_INT32", "tensorShape": {"dim": [{"size": "4"}]}}}, "dtype": {"type": "DT_INT32"}}}, {"name": "StatefulPartitionedCall/onnx_tf_prefix_Concat_100/axis", "op": "Const", "attr": {"dtype": {"type": "DT_INT32"}, "value": {"tensor": {"dtype": "DT_INT32", "tensorShape": {}}}}}, {"name": "StatefulPartitionedCall/transpose_91/perm", "op": "Const", "attr": {"value": {"tensor": {"dtype": "DT_INT32", "tensorShape": {"dim": [{"size": "4"}]}}}, "dtype": {"type": "DT_INT32"}}}, {"name": "StatefulPartitionedCall/split_30", "op": "Const", "attr": {"value": {"tensor": {"dtype": "DT_FLOAT", "tensorShape": {"dim": [{"size": "1"}, {"size": "1"}, {"size": "512"}, {"size": "512"}]}}}, "dtype": {"type": "DT_FLOAT"}}}, {"name": "unknown_60", "op": "Const", "attr": {"value": {"tensor": {"dtype": "DT_FLOAT", "tensorShape": {"dim": [{"size": "512"}]}}}, "dtype": {"type": "DT_FLOAT"}}}, {"name": "StatefulPartitionedCall/transpose_92/perm", "op": "Const", "attr": {"dtype": {"type": "DT_INT32"}, "value": {"tensor": {"dtype": "DT_INT32", "tensorShape": {"dim": [{"size": "4"}]}}}}}, {"name": "StatefulPartitionedCall/transpose_94/perm", "op": "Const", "attr": {"value": {"tensor": {"dtype": "DT_INT32", "tensorShape": {"dim": [{"size": "4"}]}}}, "dtype": {"type": "DT_INT32"}}}, {"name": "StatefulPartitionedCall/split_31", "op": "Const", "attr": {"dtype": {"type": "DT_FLOAT"}, "value": {"tensor": {"dtype": "DT_FLOAT", "tensorShape": {"dim": [{"size": "1"}, {"size": "1"}, {"size": "512"}, {"size": "256"}]}}}}}, {"name": "unknown_62", "op": "Const", "attr": {"value": {"tensor": {"dtype": "DT_FLOAT", "tensorShape": {"dim": [{"size": "256"}]}}}, "dtype": {"type": "DT_FLOAT"}}}, {"name": "StatefulPartitionedCall/transpose_95/perm", "op": "Const", "attr": {"dtype": {"type": "DT_INT32"}, "value": {"tensor": {"dtype": "DT_INT32", "tensorShape": {"dim": [{"size": "4"}]}}}}}, {"name": "StatefulPartitionedCall/transpose_96/perm", "op": "Const", "attr": {"value": {"tensor": {"dtype": "DT_INT32", "tensorShape": {"dim": [{"size": "4"}]}}}, "dtype": {"type": "DT_INT32"}}}, {"name": "StatefulPartitionedCall/transpose_101/perm", "op": "Const", "attr": {"dtype": {"type": "DT_INT32"}, "value": {"tensor": {"dtype": "DT_INT32", "tensorShape": {"dim": [{"size": "4"}]}}}}}, {"name": "StatefulPartitionedCall/onnx_tf_prefix_Concat_110/axis", "op": "Const", "attr": {"value": {"tensor": {"dtype": "DT_INT32", "tensorShape": {}}}, "dtype": {"type": "DT_INT32"}}}, {"name": "StatefulPartitionedCall/transpose_103/perm", "op": "Const", "attr": {"dtype": {"type": "DT_INT32"}, "value": {"tensor": {"dtype": "DT_INT32", "tensorShape": {"dim": [{"size": "4"}]}}}}}, {"name": "StatefulPartitionedCall/split_32", "op": "Const", "attr": {"dtype": {"type": "DT_FLOAT"}, "value": {"tensor": {"dtype": "DT_FLOAT", "tensorShape": {"dim": [{"size": "1"}, {"size": "1"}, {"size": "1024"}, {"size": "512"}]}}}}}, {"name": "unknown_64", "op": "Const", "attr": {"dtype": {"type": "DT_FLOAT"}, "value": {"tensor": {"dtype": "DT_FLOAT", "tensorShape": {"dim": [{"size": "512"}]}}}}}, {"name": "StatefulPartitionedCall/transpose_104/perm", "op": "Const", "attr": {"dtype": {"type": "DT_INT32"}, "value": {"tensor": {"dtype": "DT_INT32", "tensorShape": {"dim": [{"size": "4"}]}}}}}, {"name": "StatefulPartitionedCall/transpose_106/perm", "op": "Const", "attr": {"value": {"tensor": {"dtype": "DT_INT32", "tensorShape": {"dim": [{"size": "4"}]}}}, "dtype": {"type": "DT_INT32"}}}, {"name": "StatefulPartitionedCall/split_33", "op": "Const", "attr": {"dtype": {"type": "DT_FLOAT"}, "value": {"tensor": {"dtype": "DT_FLOAT", "tensorShape": {"dim": [{"size": "1"}, {"size": "1"}, {"size": "512"}, {"size": "256"}]}}}}}, {"name": "unknown_66", "op": "Const", "attr": {"value": {"tensor": {"dtype": "DT_FLOAT", "tensorShape": {"dim": [{"size": "256"}]}}}, "dtype": {"type": "DT_FLOAT"}}}, {"name": "StatefulPartitionedCall/transpose_107/perm", "op": "Const", "attr": {"value": {"tensor": {"dtype": "DT_INT32", "tensorShape": {"dim": [{"size": "4"}]}}}, "dtype": {"type": "DT_INT32"}}}, {"name": "StatefulPartitionedCall/onnx_tf_prefix_Concat_181/axis", "op": "Const", "attr": {"dtype": {"type": "DT_INT32"}, "value": {"tensor": {"dtype": "DT_INT32", "tensorShape": {}}}}}, {"name": "StatefulPartitionedCall/transpose_176/perm", "op": "Const", "attr": {"value": {"tensor": {"dtype": "DT_INT32", "tensorShape": {"dim": [{"size": "4"}]}}}, "dtype": {"type": "DT_INT32"}}}, {"name": "StatefulPartitionedCall/split_55", "op": "Const", "attr": {"value": {"tensor": {"dtype": "DT_FLOAT", "tensorShape": {"dim": [{"size": "1"}, {"size": "1"}, {"size": "512"}, {"size": "256"}]}}}, "dtype": {"type": "DT_FLOAT"}}}, {"name": "unknown_112", "op": "Const", "attr": {"value": {"tensor": {"dtype": "DT_FLOAT", "tensorShape": {"dim": [{"size": "256"}]}}}, "dtype": {"type": "DT_FLOAT"}}}, {"name": "StatefulPartitionedCall/transpose_177/perm", "op": "Const", "attr": {"dtype": {"type": "DT_INT32"}, "value": {"tensor": {"dtype": "DT_INT32", "tensorShape": {"dim": [{"size": "4"}]}}}}}, {"name": "StatefulPartitionedCall/onnx_tf_prefix_Concat_194/axis", "op": "Const", "attr": {"value": {"tensor": {"dtype": "DT_INT32", "tensorShape": {}}}, "dtype": {"type": "DT_INT32"}}}, {"name": "StatefulPartitionedCall/transpose_179/perm", "op": "Const", "attr": {"dtype": {"type": "DT_INT32"}, "value": {"tensor": {"dtype": "DT_INT32", "tensorShape": {"dim": [{"size": "4"}]}}}}}, {"name": "StatefulPartitionedCall/split_56", "op": "Const", "attr": {"dtype": {"type": "DT_FLOAT"}, "value": {"tensor": {"dtype": "DT_FLOAT", "tensorShape": {"dim": [{"size": "1"}, {"size": "1"}, {"size": "512"}, {"size": "512"}]}}}}}, {"name": "unknown_114", "op": "Const", "attr": {"dtype": {"type": "DT_FLOAT"}, "value": {"tensor": {"dtype": "DT_FLOAT", "tensorShape": {"dim": [{"size": "512"}]}}}}}, {"name": "StatefulPartitionedCall/transpose_180/perm", "op": "Const", "attr": {"dtype": {"type": "DT_INT32"}, "value": {"tensor": {"dtype": "DT_INT32", "tensorShape": {"dim": [{"size": "4"}]}}}}}, {"name": "StatefulPartitionedCall/transpose_188/perm", "op": "Const", "attr": {"value": {"tensor": {"dtype": "DT_INT32", "tensorShape": {"dim": [{"size": "4"}]}}}, "dtype": {"type": "DT_INT32"}}}, {"name": "StatefulPartitionedCall/split_59", "op": "Const", "attr": {"dtype": {"type": "DT_FLOAT"}, "value": {"tensor": {"dtype": "DT_FLOAT", "tensorShape": {"dim": [{"size": "1"}, {"size": "1"}, {"size": "512"}, {"size": "255"}]}}}}}, {"name": "unknown_128", "op": "Const", "attr": {"dtype": {"type": "DT_FLOAT"}, "value": {"tensor": {"dtype": "DT_FLOAT", "tensorShape": {"dim": [{"size": "255"}]}}}}}, {"name": "StatefulPartitionedCall/transpose_189/perm", "op": "Const", "attr": {"value": {"tensor": {"dtype": "DT_INT32", "tensorShape": {"dim": [{"size": "4"}]}}}, "dtype": {"type": "DT_INT32"}}}, {"name": "StatefulPartitionedCall/Cast_38", "op": "Const", "attr": {"dtype": {"type": "DT_INT64"}, "value": {"tensor": {"dtype": "DT_INT64", "tensorShape": {"dim": [{"size": "1"}]}}}}}, {"name": "StatefulPartitionedCall/zeros_10", "op": "Const", "attr": {"value": {"tensor": {"dtype": "DT_INT64", "tensorShape": {}}}, "dtype": {"type": "DT_INT64"}}}, {"name": "StatefulPartitionedCall/onnx_tf_prefix_Transpose_313/perm", "op": "Const", "attr": {"value": {"tensor": {"dtype": "DT_INT32", "tensorShape": {"dim": [{"size": "5"}]}}}, "dtype": {"type": "DT_INT32"}}}, {"name": "StatefulPartitionedCall/SelectV2_33", "op": "Const", "attr": {"dtype": {"type": "DT_INT64"}, "value": {"tensor": {"dtype": "DT_INT64", "tensorShape": {"dim": [{"size": "1"}]}}}}}, {"name": "StatefulPartitionedCall/zeros_13", "op": "Const", "attr": {"dtype": {"type": "DT_INT64"}, "value": {"tensor": {"dtype": "DT_INT64", "tensorShape": {}}}}}, {"name": "StatefulPartitionedCall/Const_50", "op": "Const", "attr": {"dtype": {"type": "DT_INT64"}, "value": {"tensor": {"dtype": "DT_INT64", "tensorShape": {}}}}}, {"name": "StatefulPartitionedCall/Shape_18", "op": "Const", "attr": {"value": {"tensor": {"dtype": "DT_INT64", "tensorShape": {"dim": [{"size": "5"}]}}}, "dtype": {"type": "DT_INT64"}}}, {"name": "StatefulPartitionedCall/SelectV2_34", "op": "Const", "attr": {"value": {"tensor": {"dtype": "DT_INT64", "tensorShape": {"dim": [{"size": "1"}]}}}, "dtype": {"type": "DT_INT64"}}}, {"name": "StatefulPartitionedCall/Const_49", "op": "Const", "attr": {"value": {"tensor": {"dtype": "DT_INT64", "tensorShape": {}}}, "dtype": {"type": "DT_INT64"}}}, {"name": "StatefulPartitionedCall/ExpandDims_8", "op": "Const", "attr": {"dtype": {"type": "DT_INT64"}, "value": {"tensor": {"dtype": "DT_INT64", "tensorShape": {"dim": [{"size": "1"}, {"size": "1"}]}}}}}, {"name": "StatefulPartitionedCall/Cast_44", "op": "Const", "attr": {"dtype": {"type": "DT_INT64"}, "value": {"tensor": {"dtype": "DT_INT64", "tensorShape": {"dim": [{"size": "1"}]}}}}}, {"name": "StatefulPartitionedCall/onnx_tf_prefix_Constant_342", "op": "Const", "attr": {"dtype": {"type": "DT_INT64"}, "value": {"tensor": {"dtype": "DT_INT64", "tensorShape": {"dim": [{"size": "1"}]}}}}}, {"name": "StatefulPartitionedCall/Const_51", "op": "Const", "attr": {"value": {"tensor": {"dtype": "DT_INT64", "tensorShape": {}}}, "dtype": {"type": "DT_INT64"}}}, {"name": "StatefulPartitionedCall/onnx_tf_prefix_Concat_344/axis", "op": "Const", "attr": {"dtype": {"type": "DT_INT32"}, "value": {"tensor": {"dtype": "DT_INT32", "tensorShape": {}}}}}, {"name": "StatefulPartitionedCall/Cast_45", "op": "Const", "attr": {"value": {"tensor": {"dtype": "DT_INT64", "tensorShape": {"dim": [{"size": "1"}]}}}, "dtype": {"type": "DT_INT64"}}}, {"name": "StatefulPartitionedCall/zeros_14", "op": "Const", "attr": {"value": {"tensor": {"dtype": "DT_INT64", "tensorShape": {}}}, "dtype": {"type": "DT_INT64"}}}, {"name": "StatefulPartitionedCall/onnx_tf_prefix_Concat_348/axis", "op": "Const", "attr": {"value": {"tensor": {"dtype": "DT_INT32", "tensorShape": {}}}, "dtype": {"type": "DT_INT32"}}}, {"name": "StatefulPartitionedCall/assert_equal_11/All", "op": "Const", "attr": {"value": {"tensor": {"dtype": "DT_BOOL", "tensorShape": {}}}, "dtype": {"type": "DT_BOOL"}}}, {"name": "StatefulPartitionedCall/assert_equal_13/All", "op": "Const", "attr": {"value": {"tensor": {"dtype": "DT_BOOL", "tensorShape": {}}}, "dtype": {"type": "DT_BOOL"}}}, {"name": "StatefulPartitionedCall/assert_equal_15/All", "op": "Const", "attr": {"dtype": {"type": "DT_BOOL"}, "value": {"tensor": {"dtype": "DT_BOOL", "tensorShape": {}}}}}, {"name": "StatefulPartitionedCall/assert_equal_17/All", "op": "Const", "attr": {"dtype": {"type": "DT_BOOL"}, "value": {"tensor": {"dtype": "DT_BOOL", "tensorShape": {}}}}}, {"name": "StatefulPartitionedCall/assert_equal_1/Assert/AssertGuard/pivot_t/_144", "op": "Const", "attr": {"dtype": {"type": "DT_BOOL"}, "value": {"tensor": {"dtype": "DT_BOOL", "tensorShape": {}}}}}, {"name": "StatefulPartitionedCall/assert_equal_1/All", "op": "Const", "attr": {"dtype": {"type": "DT_BOOL"}, "value": {"tensor": {"dtype": "DT_BOOL", "tensorShape": {}}}}}, {"name": "StatefulPartitionedCall/assert_equal_3/All", "op": "Const", "attr": {"dtype": {"type": "DT_BOOL"}, "value": {"tensor": {"dtype": "DT_BOOL", "tensorShape": {}}}}}, {"name": "StatefulPartitionedCall/assert_equal_5/All", "op": "Const", "attr": {"value": {"tensor": {"dtype": "DT_BOOL", "tensorShape": {}}}, "dtype": {"type": "DT_BOOL"}}}, {"name": "StatefulPartitionedCall/assert_equal_7/All", "op": "Const", "attr": {"dtype": {"type": "DT_BOOL"}, "value": {"tensor": {"dtype": "DT_BOOL", "tensorShape": {}}}}}, {"name": "StatefulPartitionedCall/assert_equal_9/All", "op": "Const", "attr": {"dtype": {"type": "DT_BOOL"}, "value": {"tensor": {"dtype": "DT_BOOL", "tensorShape": {}}}}}, {"name": "images", "op": "Placeholder", "attr": {"shape": {"shape": {"dim": [{"size": "1"}, {"size": "3"}, {"size": "640"}, {"size": "640"}]}}, "dtype": {"type": "DT_FLOAT"}}}, {"name": "StatefulPartitionedCall/SparseToDense_1", "op": "SparseToDense", "input": ["StatefulPartitionedCall/ExpandDims", "StatefulPartitionedCall/Cast_12", "StatefulPartitionedCall/SelectV2_1", "StatefulPartitionedCall/zeros_1"], "attr": {"T": {"type": "DT_INT64"}, "validate_indices": {"b": true}, "Tindices": {"type": "DT_INT64"}}}, {"name": "StatefulPartitionedCall/SparseToDense_2", "op": "SparseToDense", "input": ["StatefulPartitionedCall/ExpandDims", "StatefulPartitionedCall/Cast_12", "StatefulPartitionedCall/SelectV2_2", "StatefulPartitionedCall/Const_21"], "attr": {"T": {"type": "DT_INT64"}, "Tindices": {"type": "DT_INT64"}, "validate_indices": {"b": true}}}, {"name": "StatefulPartitionedCall/SparseToDense_3", "op": "SparseToDense", "input": ["StatefulPartitionedCall/ExpandDims", "StatefulPartitionedCall/Cast_12", "StatefulPartitionedCall/onnx_tf_prefix_Constant_218", "StatefulPartitionedCall/Const_23"], "attr": {"validate_indices": {"b": true}, "T": {"type": "DT_INT64"}, "Tindices": {"type": "DT_INT64"}}}, {"name": "StatefulPartitionedCall/SparseToDense_4", "op": "SparseToDense", "input": ["StatefulPartitionedCall/ExpandDims_1", "StatefulPartitionedCall/Cast_14", "StatefulPartitionedCall/SelectV2_5", "StatefulPartitionedCall/zeros_2"], "attr": {"validate_indices": {"b": true}, "Tindices": {"type": "DT_INT64"}, "T": {"type": "DT_INT64"}}}, {"name": "StatefulPartitionedCall/SparseToDense_5", "op": "SparseToDense", "input": ["StatefulPartitionedCall/ExpandDims_1", "StatefulPartitionedCall/Cast_14", "StatefulPartitionedCall/SelectV2_6", "StatefulPartitionedCall/Const_24"], "attr": {"Tindices": {"type": "DT_INT64"}, "validate_indices": {"b": true}, "T": {"type": "DT_INT64"}}}, {"name": "StatefulPartitionedCall/SparseToDense_6", "op": "SparseToDense", "input": ["StatefulPartitionedCall/ExpandDims_1", "StatefulPartitionedCall/Cast_14", "StatefulPartitionedCall/onnx_tf_prefix_Constant_231", "StatefulPartitionedCall/Const_26"], "attr": {"T": {"type": "DT_INT64"}, "Tindices": {"type": "DT_INT64"}, "validate_indices": {"b": true}}}, {"name": "StatefulPartitionedCall/SparseToDense_7", "op": "SparseToDense", "input": ["StatefulPartitionedCall/ExpandDims_2", "StatefulPartitionedCall/Cast_16", "StatefulPartitionedCall/SelectV2_9", "StatefulPartitionedCall/zeros_3"], "attr": {"Tindices": {"type": "DT_INT64"}, "T": {"type": "DT_INT64"}, "validate_indices": {"b": true}}}, {"name": "StatefulPartitionedCall/SparseToDense_8", "op": "SparseToDense", "input": ["StatefulPartitionedCall/ExpandDims_2", "StatefulPartitionedCall/Cast_16", "StatefulPartitionedCall/SelectV2_10", "StatefulPartitionedCall/Const_27"], "attr": {"validate_indices": {"b": true}, "T": {"type": "DT_INT64"}, "Tindices": {"type": "DT_INT64"}}}, {"name": "StatefulPartitionedCall/SparseToDense_9", "op": "SparseToDense", "input": ["StatefulPartitionedCall/ExpandDims_2", "StatefulPartitionedCall/Cast_16", "StatefulPartitionedCall/onnx_tf_prefix_Constant_242", "StatefulPartitionedCall/Const_29"], "attr": {"validate_indices": {"b": true}, "Tindices": {"type": "DT_INT64"}, "T": {"type": "DT_INT64"}}}, {"name": "StatefulPartitionedCall/SparseToDense_12", "op": "SparseToDense", "input": ["StatefulPartitionedCall/ExpandDims_3", "StatefulPartitionedCall/Cast_26", "StatefulPartitionedCall/SelectV2_13", "StatefulPartitionedCall/zeros_6"], "attr": {"T": {"type": "DT_INT64"}, "Tindices": {"type": "DT_INT64"}, "validate_indices": {"b": true}}}, {"name": "StatefulPartitionedCall/SparseToDense_13", "op": "SparseToDense", "input": ["StatefulPartitionedCall/ExpandDims_3", "StatefulPartitionedCall/Cast_26", "StatefulPartitionedCall/SelectV2_14", "StatefulPartitionedCall/Const_32"], "attr": {"validate_indices": {"b": true}, "Tindices": {"type": "DT_INT64"}, "T": {"type": "DT_INT64"}}}, {"name": "StatefulPartitionedCall/SparseToDense_14", "op": "SparseToDense", "input": ["StatefulPartitionedCall/ExpandDims_3", "StatefulPartitionedCall/Cast_26", "StatefulPartitionedCall/onnx_tf_prefix_Constant_268", "StatefulPartitionedCall/Const_34"], "attr": {"Tindices": {"type": "DT_INT64"}, "validate_indices": {"b": true}, "T": {"type": "DT_INT64"}}}, {"name": "StatefulPartitionedCall/SparseToDense_15", "op": "SparseToDense", "input": ["StatefulPartitionedCall/ExpandDims_4", "StatefulPartitionedCall/Cast_28", "StatefulPartitionedCall/SelectV2_17", "StatefulPartitionedCall/zeros_7"], "attr": {"T": {"type": "DT_INT64"}, "Tindices": {"type": "DT_INT64"}, "validate_indices": {"b": true}}}, {"name": "StatefulPartitionedCall/SparseToDense_16", "op": "SparseToDense", "input": ["StatefulPartitionedCall/ExpandDims_4", "StatefulPartitionedCall/Cast_28", "StatefulPartitionedCall/SelectV2_18", "StatefulPartitionedCall/Const_35"], "attr": {"Tindices": {"type": "DT_INT64"}, "validate_indices": {"b": true}, "T": {"type": "DT_INT64"}}}, {"name": "StatefulPartitionedCall/SparseToDense_17", "op": "SparseToDense", "input": ["StatefulPartitionedCall/ExpandDims_4", "StatefulPartitionedCall/Cast_28", "StatefulPartitionedCall/onnx_tf_prefix_Constant_281", "StatefulPartitionedCall/Const_37"], "attr": {"T": {"type": "DT_INT64"}, "validate_indices": {"b": true}, "Tindices": {"type": "DT_INT64"}}}, {"name": "StatefulPartitionedCall/SparseToDense_18", "op": "SparseToDense", "input": ["StatefulPartitionedCall/ExpandDims_5", "StatefulPartitionedCall/Cast_30", "StatefulPartitionedCall/SelectV2_21", "StatefulPartitionedCall/zeros_8"], "attr": {"validate_indices": {"b": true}, "Tindices": {"type": "DT_INT64"}, "T": {"type": "DT_INT64"}}}, {"name": "StatefulPartitionedCall/SparseToDense_19", "op": "SparseToDense", "input": ["StatefulPartitionedCall/ExpandDims_5", "StatefulPartitionedCall/Cast_30", "StatefulPartitionedCall/SelectV2_22", "StatefulPartitionedCall/Const_38"], "attr": {"T": {"type": "DT_INT64"}, "validate_indices": {"b": true}, "Tindices": {"type": "DT_INT64"}}}, {"name": "StatefulPartitionedCall/SparseToDense_20", "op": "SparseToDense", "input": ["StatefulPartitionedCall/ExpandDims_5", "StatefulPartitionedCall/Cast_30", "StatefulPartitionedCall/onnx_tf_prefix_Constant_292", "StatefulPartitionedCall/Const_40"], "attr": {"Tindices": {"type": "DT_INT64"}, "validate_indices": {"b": true}, "T": {"type": "DT_INT64"}}}, {"name": "StatefulPartitionedCall/SparseToDense_23", "op": "SparseToDense", "input": ["StatefulPartitionedCall/ExpandDims_6", "StatefulPartitionedCall/Cast_40", "StatefulPartitionedCall/SelectV2_25", "StatefulPartitionedCall/zeros_11"], "attr": {"T": {"type": "DT_INT64"}, "Tindices": {"type": "DT_INT64"}, "validate_indices": {"b": true}}}, {"name": "StatefulPartitionedCall/SparseToDense_24", "op": "SparseToDense", "input": ["StatefulPartitionedCall/ExpandDims_6", "StatefulPartitionedCall/Cast_40", "StatefulPartitionedCall/SelectV2_26", "StatefulPartitionedCall/Const_43"], "attr": {"validate_indices": {"b": true}, "Tindices": {"type": "DT_INT64"}, "T": {"type": "DT_INT64"}}}, {"name": "StatefulPartitionedCall/SparseToDense_25", "op": "SparseToDense", "input": ["StatefulPartitionedCall/ExpandDims_6", "StatefulPartitionedCall/Cast_40", "StatefulPartitionedCall/onnx_tf_prefix_Constant_318", "StatefulPartitionedCall/Const_45"], "attr": {"T": {"type": "DT_INT64"}, "validate_indices": {"b": true}, "Tindices": {"type": "DT_INT64"}}}, {"name": "StatefulPartitionedCall/SparseToDense_26", "op": "SparseToDense", "input": ["StatefulPartitionedCall/ExpandDims_7", "StatefulPartitionedCall/Cast_42", "StatefulPartitionedCall/SelectV2_29", "StatefulPartitionedCall/zeros_12"], "attr": {"validate_indices": {"b": true}, "Tindices": {"type": "DT_INT64"}, "T": {"type": "DT_INT64"}}}, {"name": "StatefulPartitionedCall/SparseToDense_27", "op": "SparseToDense", "input": ["StatefulPartitionedCall/ExpandDims_7", "StatefulPartitionedCall/Cast_42", "StatefulPartitionedCall/SelectV2_30", "StatefulPartitionedCall/Const_46"], "attr": {"Tindices": {"type": "DT_INT64"}, "validate_indices": {"b": true}, "T": {"type": "DT_INT64"}}}, {"name": "StatefulPartitionedCall/SparseToDense_28", "op": "SparseToDense", "input": ["StatefulPartitionedCall/ExpandDims_7", "StatefulPartitionedCall/Cast_42", "StatefulPartitionedCall/onnx_tf_prefix_Constant_331", "StatefulPartitionedCall/Const_48"], "attr": {"Tindices": {"type": "DT_INT64"}, "validate_indices": {"b": true}, "T": {"type": "DT_INT64"}}}, {"name": "StatefulPartitionedCall/SparseToDense_29", "op": "SparseToDense", "input": ["StatefulPartitionedCall/ExpandDims_8", "StatefulPartitionedCall/Cast_44", "StatefulPartitionedCall/SelectV2_33", "StatefulPartitionedCall/zeros_13"], "attr": {"validate_indices": {"b": true}, "T": {"type": "DT_INT64"}, "Tindices": {"type": "DT_INT64"}}}, {"name": "StatefulPartitionedCall/SparseToDense_30", "op": "SparseToDense", "input": ["StatefulPartitionedCall/ExpandDims_8", "StatefulPartitionedCall/Cast_44", "StatefulPartitionedCall/SelectV2_34", "StatefulPartitionedCall/Const_49"], "attr": {"Tindices": {"type": "DT_INT64"}, "T": {"type": "DT_INT64"}, "validate_indices": {"b": true}}}, {"name": "StatefulPartitionedCall/SparseToDense_31", "op": "SparseToDense", "input": ["StatefulPartitionedCall/ExpandDims_8", "StatefulPartitionedCall/Cast_44", "StatefulPartitionedCall/onnx_tf_prefix_Constant_342", "StatefulPartitionedCall/Const_51"], "attr": {"Tindices": {"type": "DT_INT64"}, "T": {"type": "DT_INT64"}, "validate_indices": {"b": true}}}, {"name": "StatefulPartitionedCall/assert_equal_11/Assert/AssertGuard/StatefulPartitionedCall/assert_equal_11/All/_195", "op": "Switch", "input": ["StatefulPartitionedCall/assert_equal_11/All", "StatefulPartitionedCall/assert_equal_11/All"], "attr": {"T": {"type": "DT_BOOL"}}}, {"name": "StatefulPartitionedCall/assert_equal_13/Assert/AssertGuard/StatefulPartitionedCall/assert_equal_13/All/_205", "op": "Switch", "input": ["StatefulPartitionedCall/assert_equal_13/All", "StatefulPartitionedCall/assert_equal_13/All"], "attr": {"T": {"type": "DT_BOOL"}}}, {"name": "StatefulPartitionedCall/assert_equal_15/Assert/AssertGuard/StatefulPartitionedCall/assert_equal_15/All/_215", "op": "Switch", "input": ["StatefulPartitionedCall/assert_equal_15/All", "StatefulPartitionedCall/assert_equal_15/All"], "attr": {"T": {"type": "DT_BOOL"}}}, {"name": "StatefulPartitionedCall/assert_equal_17/Assert/AssertGuard/StatefulPartitionedCall/assert_equal_17/All/_225", "op": "Switch", "input": ["StatefulPartitionedCall/assert_equal_17/All", "StatefulPartitionedCall/assert_equal_17/All"], "attr": {"T": {"type": "DT_BOOL"}}}, {"name": "StatefulPartitionedCall/assert_equal_1/Assert/AssertGuard/switch_pred/_142", "op": "Switch", "input": ["StatefulPartitionedCall/assert_equal_1/All", "StatefulPartitionedCall/assert_equal_1/All"], "attr": {"T": {"type": "DT_BOOL"}}}, {"name": "StatefulPartitionedCall/assert_equal_1/Assert/AssertGuard/StatefulPartitionedCall/assert_equal_1/All/_145", "op": "Switch", "input": ["StatefulPartitionedCall/assert_equal_1/All", "StatefulPartitionedCall/assert_equal_1/All"], "attr": {"T": {"type": "DT_BOOL"}}}, {"name": "StatefulPartitionedCall/assert_equal_3/Assert/AssertGuard/StatefulPartitionedCall/assert_equal_3/All/_155", "op": "Switch", "input": ["StatefulPartitionedCall/assert_equal_3/All", "StatefulPartitionedCall/assert_equal_3/All"], "attr": {"T": {"type": "DT_BOOL"}}}, {"name": "StatefulPartitionedCall/assert_equal_5/Assert/AssertGuard/StatefulPartitionedCall/assert_equal_5/All/_165", "op": "Switch", "input": ["StatefulPartitionedCall/assert_equal_5/All", "StatefulPartitionedCall/assert_equal_5/All"], "attr": {"T": {"type": "DT_BOOL"}}}, {"name": "StatefulPartitionedCall/assert_equal_7/Assert/AssertGuard/StatefulPartitionedCall/assert_equal_7/All/_175", "op": "Switch", "input": ["StatefulPartitionedCall/assert_equal_7/All", "StatefulPartitionedCall/assert_equal_7/All"], "attr": {"T": {"type": "DT_BOOL"}}}, {"name": "StatefulPartitionedCall/assert_equal_9/Assert/AssertGuard/StatefulPartitionedCall/assert_equal_9/All/_185", "op": "Switch", "input": ["StatefulPartitionedCall/assert_equal_9/All", "StatefulPartitionedCall/assert_equal_9/All"], "attr": {"T": {"type": "DT_BOOL"}}}, {"name": "StatefulPartitionedCall/Pad", "op": "Pad", "input": ["images", "StatefulPartitionedCall/Const"], "attr": {"T": {"type": "DT_FLOAT"}, "Tpaddings": {"type": "DT_INT32"}}}, {"name": "StatefulPartitionedCall/Equal_1", "op": "Equal", "input": ["StatefulPartitionedCall/SparseToDense_2", "StatefulPartitionedCall/Const_22"], "attr": {"T": {"type": "DT_INT64"}, "incompatible_shape_error": {"b": true}}}, {"name": "StatefulPartitionedCall/Equal_2", "op": "Equal", "input": ["StatefulPartitionedCall/SparseToDense_5", "StatefulPartitionedCall/Const_25"], "attr": {"T": {"type": "DT_INT64"}, "incompatible_shape_error": {"b": true}}}, {"name": "StatefulPartitionedCall/Equal_3", "op": "Equal", "input": ["StatefulPartitionedCall/SparseToDense_8", "StatefulPartitionedCall/Const_28"], "attr": {"T": {"type": "DT_INT64"}, "incompatible_shape_error": {"b": true}}}, {"name": "StatefulPartitionedCall/Equal_6", "op": "Equal", "input": ["StatefulPartitionedCall/SparseToDense_13", "StatefulPartitionedCall/Const_33"], "attr": {"incompatible_shape_error": {"b": true}, "T": {"type": "DT_INT64"}}}, {"name": "StatefulPartitionedCall/Equal_7", "op": "Equal", "input": ["StatefulPartitionedCall/SparseToDense_16", "StatefulPartitionedCall/Const_36"], "attr": {"T": {"type": "DT_INT64"}, "incompatible_shape_error": {"b": true}}}, {"name": "StatefulPartitionedCall/Equal_8", "op": "Equal", "input": ["StatefulPartitionedCall/SparseToDense_19", "StatefulPartitionedCall/Const_39"], "attr": {"T": {"type": "DT_INT64"}, "incompatible_shape_error": {"b": true}}}, {"name": "StatefulPartitionedCall/Equal_11", "op": "Equal", "input": ["StatefulPartitionedCall/SparseToDense_24", "StatefulPartitionedCall/Const_44"], "attr": {"incompatible_shape_error": {"b": true}, "T": {"type": "DT_INT64"}}}, {"name": "StatefulPartitionedCall/Equal_12", "op": "Equal", "input": ["StatefulPartitionedCall/SparseToDense_27", "StatefulPartitionedCall/Const_47"], "attr": {"T": {"type": "DT_INT64"}, "incompatible_shape_error": {"b": true}}}, {"name": "StatefulPartitionedCall/Equal_13", "op": "Equal", "input": ["StatefulPartitionedCall/SparseToDense_30", "StatefulPartitionedCall/Const_50"], "attr": {"T": {"type": "DT_INT64"}, "incompatible_shape_error": {"b": true}}}, {"name": "ConstantFoldingCtrl/StatefulPartitionedCall/assert_equal_11/Assert/AssertGuard/StatefulPartitionedCall/assert_equal_11/All/_195_0", "op": "Identity", "input": ["StatefulPartitionedCall/assert_equal_11/Assert/AssertGuard/StatefulPartitionedCall/assert_equal_11/All/_195"], "attr": {"T": {"type": "DT_BOOL"}}}, {"name": "ConstantFoldingCtrl/StatefulPartitionedCall/assert_equal_13/Assert/AssertGuard/StatefulPartitionedCall/assert_equal_13/All/_205_0", "op": "Identity", "input": ["StatefulPartitionedCall/assert_equal_13/Assert/AssertGuard/StatefulPartitionedCall/assert_equal_13/All/_205"], "attr": {"T": {"type": "DT_BOOL"}}}, {"name": "ConstantFoldingCtrl/StatefulPartitionedCall/assert_equal_15/Assert/AssertGuard/StatefulPartitionedCall/assert_equal_15/All/_215_0", "op": "Identity", "input": ["StatefulPartitionedCall/assert_equal_15/Assert/AssertGuard/StatefulPartitionedCall/assert_equal_15/All/_215"], "attr": {"T": {"type": "DT_BOOL"}}}, {"name": "ConstantFoldingCtrl/StatefulPartitionedCall/assert_equal_17/Assert/AssertGuard/StatefulPartitionedCall/assert_equal_17/All/_225_0", "op": "Identity", "input": ["StatefulPartitionedCall/assert_equal_17/Assert/AssertGuard/StatefulPartitionedCall/assert_equal_17/All/_225"], "attr": {"T": {"type": "DT_BOOL"}}}, {"name": "StatefulPartitionedCall/assert_equal_1/Assert/AssertGuard/pivot_f/_143", "op": "Identity", "input": ["StatefulPartitionedCall/assert_equal_1/Assert/AssertGuard/switch_pred/_142"], "attr": {"T": {"type": "DT_BOOL"}}}, {"name": "ConstantFoldingCtrl/StatefulPartitionedCall/assert_equal_1/Assert/AssertGuard/StatefulPartitionedCall/assert_equal_1/All/_145_0", "op": "Identity", "input": ["StatefulPartitionedCall/assert_equal_1/Assert/AssertGuard/StatefulPartitionedCall/assert_equal_1/All/_145"], "attr": {"T": {"type": "DT_BOOL"}}}, {"name": "ConstantFoldingCtrl/StatefulPartitionedCall/assert_equal_3/Assert/AssertGuard/StatefulPartitionedCall/assert_equal_3/All/_155_0", "op": "Identity", "input": ["StatefulPartitionedCall/assert_equal_3/Assert/AssertGuard/StatefulPartitionedCall/assert_equal_3/All/_155"], "attr": {"T": {"type": "DT_BOOL"}}}, {"name": "ConstantFoldingCtrl/StatefulPartitionedCall/assert_equal_5/Assert/AssertGuard/StatefulPartitionedCall/assert_equal_5/All/_165_0", "op": "Identity", "input": ["StatefulPartitionedCall/assert_equal_5/Assert/AssertGuard/StatefulPartitionedCall/assert_equal_5/All/_165"], "attr": {"T": {"type": "DT_BOOL"}}}, {"name": "ConstantFoldingCtrl/StatefulPartitionedCall/assert_equal_7/Assert/AssertGuard/StatefulPartitionedCall/assert_equal_7/All/_175_0", "op": "Identity", "input": ["StatefulPartitionedCall/assert_equal_7/Assert/AssertGuard/StatefulPartitionedCall/assert_equal_7/All/_175"], "attr": {"T": {"type": "DT_BOOL"}}}, {"name": "ConstantFoldingCtrl/StatefulPartitionedCall/assert_equal_9/Assert/AssertGuard/StatefulPartitionedCall/assert_equal_9/All/_185_0", "op": "Identity", "input": ["StatefulPartitionedCall/assert_equal_9/Assert/AssertGuard/StatefulPartitionedCall/assert_equal_9/All/_185"], "attr": {"T": {"type": "DT_BOOL"}}}, {"name": "StatefulPartitionedCall/transpose_1", "op": "Transpose", "input": ["StatefulPartitionedCall/Pad", "StatefulPartitionedCall/transpose_1/perm"], "attr": {"Tperm": {"type": "DT_INT32"}, "T": {"type": "DT_FLOAT"}}}, {"name": "StatefulPartitionedCall/SelectV2_3", "op": "SelectV2", "input": ["StatefulPartitionedCall/Equal_1", "StatefulPartitionedCall/Shape_2", "StatefulPartitionedCall/SparseToDense_2"], "attr": {"T": {"type": "DT_INT64"}}}, {"name": "StatefulPartitionedCall/SelectV2_7", "op": "SelectV2", "input": ["StatefulPartitionedCall/Equal_2", "StatefulPartitionedCall/Shape_3", "StatefulPartitionedCall/SparseToDense_5"], "attr": {"T": {"type": "DT_INT64"}}}, {"name": "StatefulPartitionedCall/SelectV2_11", "op": "SelectV2", "input": ["StatefulPartitionedCall/Equal_3", "StatefulPartitionedCall/Shape_4", "StatefulPartitionedCall/SparseToDense_8"], "attr": {"T": {"type": "DT_INT64"}}}, {"name": "StatefulPartitionedCall/SelectV2_15", "op": "SelectV2", "input": ["StatefulPartitionedCall/Equal_6", "StatefulPartitionedCall/Shape_9", "StatefulPartitionedCall/SparseToDense_13"], "attr": {"T": {"type": "DT_INT64"}}}, {"name": "StatefulPartitionedCall/SelectV2_19", "op": "SelectV2", "input": ["StatefulPartitionedCall/Equal_7", "StatefulPartitionedCall/Shape_10", "StatefulPartitionedCall/SparseToDense_16"], "attr": {"T": {"type": "DT_INT64"}}}, {"name": "StatefulPartitionedCall/SelectV2_23", "op": "SelectV2", "input": ["StatefulPartitionedCall/Equal_8", "StatefulPartitionedCall/Shape_11", "StatefulPartitionedCall/SparseToDense_19"], "attr": {"T": {"type": "DT_INT64"}}}, {"name": "StatefulPartitionedCall/SelectV2_27", "op": "SelectV2", "input": ["StatefulPartitionedCall/Equal_11", "StatefulPartitionedCall/Shape_16", "StatefulPartitionedCall/SparseToDense_24"], "attr": {"T": {"type": "DT_INT64"}}}, {"name": "StatefulPartitionedCall/SelectV2_31", "op": "SelectV2", "input": ["StatefulPartitionedCall/Equal_12", "StatefulPartitionedCall/Shape_17", "StatefulPartitionedCall/SparseToDense_27"], "attr": {"T": {"type": "DT_INT64"}}}, {"name": "StatefulPartitionedCall/SelectV2_35", "op": "SelectV2", "input": ["StatefulPartitionedCall/Equal_13", "StatefulPartitionedCall/Shape_18", "StatefulPartitionedCall/SparseToDense_30"], "attr": {"T": {"type": "DT_INT64"}}}, {"name": "StatefulPartitionedCall/assert_equal_1/Assert/AssertGuard/else/_141/assert_equal_1/Assert/AssertGuard/Identity_1", "op": "Const", "input": ["^StatefulPartitionedCall/assert_equal_1/Assert/AssertGuard/pivot_f/_143", "^ConstantFoldingCtrl/StatefulPartitionedCall/assert_equal_1/Assert/AssertGuard/StatefulPartitionedCall/assert_equal_1/All/_145_0"], "attr": {"dtype": {"type": "DT_BOOL"}, "value": {"tensor": {"dtype": "DT_BOOL", "tensorShape": {}}}}}, {"name": "StatefulPartitionedCall/assert_equal_1/Assert/AssertGuard/branch_executed/_149", "op": "Merge", "input": ["StatefulPartitionedCall/assert_equal_1/Assert/AssertGuard/pivot_t/_144", "StatefulPartitionedCall/assert_equal_1/Assert/AssertGuard/pivot_f/_143", "^ConstantFoldingCtrl/StatefulPartitionedCall/assert_equal_1/Assert/AssertGuard/StatefulPartitionedCall/assert_equal_1/All/_145_0"], "attr": {"T": {"type": "DT_BOOL"}, "N": {"i": "2"}}}, {"name": "StatefulPartitionedCall/convolution", "op": "Conv2D", "input": ["StatefulPartitionedCall/transpose_1", "StatefulPartitionedCall/split"], "device": "/device:CPU:0", "attr": {"data_format": {"s": "TkhXQw=="}, "dilations": {"list": {"i": ["1", "1", "1", "1"]}}, "explicit_paddings": {"list": {}}, "T": {"type": "DT_FLOAT"}, "strides": {"list": {"i": ["1", "2", "2", "1"]}}, "use_cudnn_on_gpu": {"b": true}, "padding": {"s": "VkFMSUQ="}}}, {"name": "StatefulPartitionedCall/assert_equal_1/Assert/AssertGuard/output/_148", "op": "Merge", "input": ["Func/StatefulPartitionedCall/assert_equal_1/Assert/AssertGuard/then/_140/output/_234", "StatefulPartitionedCall/assert_equal_1/Assert/AssertGuard/else/_141/assert_equal_1/Assert/AssertGuard/Identity_1"], "attr": {"N": {"i": "2"}, "T": {"type": "DT_BOOL"}}}, {"name": "StatefulPartitionedCall/assert_equal_3/Assert/AssertGuard/pivot_t/_154", "op": "Const", "input": ["^StatefulPartitionedCall/assert_equal_1/Assert/AssertGuard/branch_executed/_149"], "attr": {"dtype": {"type": "DT_BOOL"}, "value": {"tensor": {"dtype": "DT_BOOL", "tensorShape": {}}}}}, {"name": "StatefulPartitionedCall/assert_equal_3/Assert/AssertGuard/switch_pred/_152", "op": "Switch", "input": ["StatefulPartitionedCall/assert_equal_3/All", "StatefulPartitionedCall/assert_equal_3/All", "^StatefulPartitionedCall/assert_equal_1/Assert/AssertGuard/branch_executed/_149"], "attr": {"T": {"type": "DT_BOOL"}}}, {"name": "StatefulPartitionedCall/Add", "op": "AddV2", "input": ["StatefulPartitionedCall/convolution", "unknown_0"], "attr": {"T": {"type": "DT_FLOAT"}}}, {"name": "StatefulPartitionedCall/onnx_tf_prefix_Concat_246", "op": "Const", "input": ["^StatefulPartitionedCall/assert_equal_1/Assert/AssertGuard/output/_148"], "attr": {"value": {"tensor": {"dtype": "DT_INT64", "tensorShape": {"dim": [{"size": "3"}]}}}, "dtype": {"type": "DT_INT64"}}}, {"name": "StatefulPartitionedCall/Where_1", "op": "Const", "input": ["^StatefulPartitionedCall/assert_equal_1/Assert/AssertGuard/output/_148"], "attr": {"dtype": {"type": "DT_INT64"}, "value": {"tensor": {"dtype": "DT_INT64", "tensorShape": {"dim": [{}, {"size": "1"}]}}}}}, {"name": "StatefulPartitionedCall/GatherV2_1", "op": "Const", "input": ["^StatefulPartitionedCall/assert_equal_1/Assert/AssertGuard/output/_148"], "attr": {"value": {"tensor": {"dtype": "DT_INT64", "tensorShape": {"dim": [{}]}}}, "dtype": {"type": "DT_INT64"}}}, {"name": "Func/StatefulPartitionedCall/assert_equal_3/Assert/AssertGuard/then/_150/output/_246", "op": "Const", "input": ["^StatefulPartitionedCall/assert_equal_3/Assert/AssertGuard/pivot_t/_154"], "attr": {"dtype": {"type": "DT_BOOL"}, "value": {"tensor": {"dtype": "DT_BOOL", "tensorShape": {}}}}}, {"name": "StatefulPartitionedCall/assert_equal_3/Assert/AssertGuard/pivot_f/_153", "op": "Identity", "input": ["StatefulPartitionedCall/assert_equal_3/Assert/AssertGuard/switch_pred/_152"], "attr": {"T": {"type": "DT_BOOL"}}}, {"name": "StatefulPartitionedCall/transpose_2", "op": "Transpose", "input": ["StatefulPartitionedCall/Add", "StatefulPartitionedCall/transpose_2/perm"], "attr": {"Tperm": {"type": "DT_INT32"}, "T": {"type": "DT_FLOAT"}}}, {"name": "StatefulPartitionedCall/SparseToDense_10", "op": "SparseToDense", "input": ["StatefulPartitionedCall/Where_1", "StatefulPartitionedCall/Cast_17", "StatefulPartitionedCall/GatherV2_1", "StatefulPartitionedCall/zeros_4"], "attr": {"validate_indices": {"b": true}, "T": {"type": "DT_INT64"}, "Tindices": {"type": "DT_INT64"}}}, {"name": "StatefulPartitionedCall/assert_equal_3/Assert/AssertGuard/branch_executed/_159", "op": "Merge", "input": ["StatefulPartitionedCall/assert_equal_3/Assert/AssertGuard/pivot_t/_154", "StatefulPartitionedCall/assert_equal_3/Assert/AssertGuard/pivot_f/_153", "^ConstantFoldingCtrl/StatefulPartitionedCall/assert_equal_3/Assert/AssertGuard/StatefulPartitionedCall/assert_equal_3/All/_155_0"], "attr": {"T": {"type": "DT_BOOL"}, "N": {"i": "2"}}}, {"name": "StatefulPartitionedCall/assert_equal_3/Assert/AssertGuard/else/_151/assert_equal_3/Assert/AssertGuard/Identity_1", "op": "Const", "input": ["^StatefulPartitionedCall/assert_equal_3/Assert/AssertGuard/pivot_f/_153", "^ConstantFoldingCtrl/StatefulPartitionedCall/assert_equal_3/Assert/AssertGuard/StatefulPartitionedCall/assert_equal_3/All/_155_0"], "attr": {"dtype": {"type": "DT_BOOL"}, "value": {"tensor": {"dtype": "DT_BOOL", "tensorShape": {}}}}}, {"name": "StatefulPartitionedCall/onnx_tf_prefix_Sigmoid_1", "op": "Sigmoid", "input": ["StatefulPartitionedCall/transpose_2"], "attr": {"T": {"type": "DT_FLOAT"}}}, {"name": "StatefulPartitionedCall/add_71", "op": "AddV2", "input": ["StatefulPartitionedCall/onnx_tf_prefix_Concat_246", "StatefulPartitionedCall/SparseToDense_10"], "attr": {"T": {"type": "DT_INT64"}}}, {"name": "StatefulPartitionedCall/assert_equal_5/Assert/AssertGuard/pivot_t/_164", "op": "Const", "input": ["^StatefulPartitionedCall/assert_equal_3/Assert/AssertGuard/branch_executed/_159"], "attr": {"value": {"tensor": {"dtype": "DT_BOOL", "tensorShape": {}}}, "dtype": {"type": "DT_BOOL"}}}, {"name": "StatefulPartitionedCall/assert_equal_5/Assert/AssertGuard/switch_pred/_162", "op": "Switch", "input": ["StatefulPartitionedCall/assert_equal_5/All", "StatefulPartitionedCall/assert_equal_5/All", "^StatefulPartitionedCall/assert_equal_3/Assert/AssertGuard/branch_executed/_159"], "attr": {"T": {"type": "DT_BOOL"}}}, {"name": "StatefulPartitionedCall/assert_equal_3/Assert/AssertGuard/output/_158", "op": "Merge", "input": ["Func/StatefulPartitionedCall/assert_equal_3/Assert/AssertGuard/then/_150/output/_246", "StatefulPartitionedCall/assert_equal_3/Assert/AssertGuard/else/_151/assert_equal_3/Assert/AssertGuard/Identity_1"], "attr": {"T": {"type": "DT_BOOL"}, "N": {"i": "2"}}}, {"name": "StatefulPartitionedCall/onnx_tf_prefix_Mul_2", "op": "Mul", "input": ["StatefulPartitionedCall/transpose_2", "StatefulPartitionedCall/onnx_tf_prefix_Sigmoid_1"], "attr": {"T": {"type": "DT_FLOAT"}}}, {"name": "Func/StatefulPartitionedCall/assert_equal_5/Assert/AssertGuard/then/_160/output/_258", "op": "Const", "input": ["^StatefulPartitionedCall/assert_equal_5/Assert/AssertGuard/pivot_t/_164"], "attr": {"dtype": {"type": "DT_BOOL"}, "value": {"tensor": {"dtype": "DT_BOOL", "tensorShape": {}}}}}, {"name": "StatefulPartitionedCall/assert_equal_5/Assert/AssertGuard/pivot_f/_163", "op": "Identity", "input": ["StatefulPartitionedCall/assert_equal_5/Assert/AssertGuard/switch_pred/_162"], "attr": {"T": {"type": "DT_BOOL"}}}, {"name": "StatefulPartitionedCall/Pad_1", "op": "Pad", "input": ["StatefulPartitionedCall/onnx_tf_prefix_Mul_2", "StatefulPartitionedCall/Const_1"], "attr": {"Tpaddings": {"type": "DT_INT32"}, "T": {"type": "DT_FLOAT"}}}, {"name": "StatefulPartitionedCall/assert_equal_5/Assert/AssertGuard/branch_executed/_169", "op": "Merge", "input": ["StatefulPartitionedCall/assert_equal_5/Assert/AssertGuard/pivot_t/_164", "StatefulPartitionedCall/assert_equal_5/Assert/AssertGuard/pivot_f/_163", "^ConstantFoldingCtrl/StatefulPartitionedCall/assert_equal_5/Assert/AssertGuard/StatefulPartitionedCall/assert_equal_5/All/_165_0"], "attr": {"N": {"i": "2"}, "T": {"type": "DT_BOOL"}}}, {"name": "StatefulPartitionedCall/assert_equal_5/Assert/AssertGuard/else/_161/assert_equal_5/Assert/AssertGuard/Identity_1", "op": "Const", "input": ["^StatefulPartitionedCall/assert_equal_5/Assert/AssertGuard/pivot_f/_163", "^ConstantFoldingCtrl/StatefulPartitionedCall/assert_equal_5/Assert/AssertGuard/StatefulPartitionedCall/assert_equal_5/All/_165_0"], "attr": {"dtype": {"type": "DT_BOOL"}, "value": {"tensor": {"dtype": "DT_BOOL", "tensorShape": {}}}}}, {"name": "StatefulPartitionedCall/transpose_4", "op": "Transpose", "input": ["StatefulPartitionedCall/Pad_1", "StatefulPartitionedCall/transpose_4/perm"], "attr": {"T": {"type": "DT_FLOAT"}, "Tperm": {"type": "DT_INT32"}}}, {"name": "StatefulPartitionedCall/assert_equal_7/Assert/AssertGuard/pivot_t/_174", "op": "Const", "input": ["^StatefulPartitionedCall/assert_equal_5/Assert/AssertGuard/branch_executed/_169"], "attr": {"value": {"tensor": {"dtype": "DT_BOOL", "tensorShape": {}}}, "dtype": {"type": "DT_BOOL"}}}, {"name": "StatefulPartitionedCall/assert_equal_7/Assert/AssertGuard/switch_pred/_172", "op": "Switch", "input": ["StatefulPartitionedCall/assert_equal_7/All", "StatefulPartitionedCall/assert_equal_7/All", "^StatefulPartitionedCall/assert_equal_5/Assert/AssertGuard/branch_executed/_169"], "attr": {"T": {"type": "DT_BOOL"}}}, {"name": "StatefulPartitionedCall/assert_equal_5/Assert/AssertGuard/output/_168", "op": "Merge", "input": ["Func/StatefulPartitionedCall/assert_equal_5/Assert/AssertGuard/then/_160/output/_258", "StatefulPartitionedCall/assert_equal_5/Assert/AssertGuard/else/_161/assert_equal_5/Assert/AssertGuard/Identity_1"], "attr": {"N": {"i": "2"}, "T": {"type": "DT_BOOL"}}}, {"name": "StatefulPartitionedCall/convolution_1", "op": "Conv2D", "input": ["StatefulPartitionedCall/transpose_4", "StatefulPartitionedCall/split_1"], "device": "/device:CPU:0", "attr": {"T": {"type": "DT_FLOAT"}, "strides": {"list": {"i": ["1", "2", "2", "1"]}}, "explicit_paddings": {"list": {}}, "use_cudnn_on_gpu": {"b": true}, "data_format": {"s": "TkhXQw=="}, "dilations": {"list": {"i": ["1", "1", "1", "1"]}}, "padding": {"s": "VkFMSUQ="}}}, {"name": "Func/StatefulPartitionedCall/assert_equal_7/Assert/AssertGuard/then/_170/output/_270", "op": "Const", "input": ["^StatefulPartitionedCall/assert_equal_7/Assert/AssertGuard/pivot_t/_174"], "attr": {"dtype": {"type": "DT_BOOL"}, "value": {"tensor": {"dtype": "DT_BOOL", "tensorShape": {}}}}}, {"name": "StatefulPartitionedCall/assert_equal_7/Assert/AssertGuard/pivot_f/_173", "op": "Identity", "input": ["StatefulPartitionedCall/assert_equal_7/Assert/AssertGuard/switch_pred/_172"], "attr": {"T": {"type": "DT_BOOL"}}}, {"name": "StatefulPartitionedCall/onnx_tf_prefix_Concat_211", "op": "Const", "input": ["^StatefulPartitionedCall/assert_equal_1/Assert/AssertGuard/output/_148", "^StatefulPartitionedCall/assert_equal_3/Assert/AssertGuard/output/_158", "^StatefulPartitionedCall/assert_equal_5/Assert/AssertGuard/output/_168"], "attr": {"dtype": {"type": "DT_INT64"}, "value": {"tensor": {"dtype": "DT_INT64", "tensorShape": {"dim": [{"size": "5"}]}}}}}, {"name": "StatefulPartitionedCall/Where", "op": "Const", "input": ["^StatefulPartitionedCall/assert_equal_1/Assert/AssertGuard/output/_148", "^StatefulPartitionedCall/assert_equal_3/Assert/AssertGuard/output/_158", "^StatefulPartitionedCall/assert_equal_5/Assert/AssertGuard/output/_168"], "attr": {"dtype": {"type": "DT_INT64"}, "value": {"tensor": {"dtype": "DT_INT64", "tensorShape": {"dim": [{}, {"size": "1"}]}}}}}, {"name": "StatefulPartitionedCall/GatherV2", "op": "Const", "input": ["^StatefulPartitionedCall/assert_equal_1/Assert/AssertGuard/output/_148", "^StatefulPartitionedCall/assert_equal_3/Assert/AssertGuard/output/_158", "^StatefulPartitionedCall/assert_equal_5/Assert/AssertGuard/output/_168"], "attr": {"dtype": {"type": "DT_INT64"}, "value": {"tensor": {"dtype": "DT_INT64", "tensorShape": {"dim": [{}]}}}}}, {"name": "StatefulPartitionedCall/Add_1", "op": "AddV2", "input": ["StatefulPartitionedCall/convolution_1", "unknown_2"], "attr": {"T": {"type": "DT_FLOAT"}}}, {"name": "StatefulPartitionedCall/assert_equal_7/Assert/AssertGuard/branch_executed/_179", "op": "Merge", "input": ["StatefulPartitionedCall/assert_equal_7/Assert/AssertGuard/pivot_t/_174", "StatefulPartitionedCall/assert_equal_7/Assert/AssertGuard/pivot_f/_173", "^ConstantFoldingCtrl/StatefulPartitionedCall/assert_equal_7/Assert/AssertGuard/StatefulPartitionedCall/assert_equal_7/All/_175_0"], "attr": {"T": {"type": "DT_BOOL"}, "N": {"i": "2"}}}, {"name": "StatefulPartitionedCall/assert_equal_7/Assert/AssertGuard/else/_171/assert_equal_7/Assert/AssertGuard/Identity_1", "op": "Const", "input": ["^StatefulPartitionedCall/assert_equal_7/Assert/AssertGuard/pivot_f/_173", "^ConstantFoldingCtrl/StatefulPartitionedCall/assert_equal_7/Assert/AssertGuard/StatefulPartitionedCall/assert_equal_7/All/_175_0"], "attr": {"dtype": {"type": "DT_BOOL"}, "value": {"tensor": {"dtype": "DT_BOOL", "tensorShape": {}}}}}, {"name": "StatefulPartitionedCall/SparseToDense", "op": "SparseToDense", "input": ["StatefulPartitionedCall/Where", "StatefulPartitionedCall/Cast_10", "StatefulPartitionedCall/GatherV2", "StatefulPartitionedCall/zeros"], "attr": {"Tindices": {"type": "DT_INT64"}, "validate_indices": {"b": true}, "T": {"type": "DT_INT64"}}}, {"name": "StatefulPartitionedCall/transpose_5", "op": "Transpose", "input": ["StatefulPartitionedCall/Add_1", "StatefulPartitionedCall/transpose_5/perm"], "attr": {"Tperm": {"type": "DT_INT32"}, "T": {"type": "DT_FLOAT"}}}, {"name": "StatefulPartitionedCall/assert_equal_9/Assert/AssertGuard/pivot_t/_184", "op": "Const", "input": ["^StatefulPartitionedCall/assert_equal_7/Assert/AssertGuard/branch_executed/_179"], "attr": {"value": {"tensor": {"dtype": "DT_BOOL", "tensorShape": {}}}, "dtype": {"type": "DT_BOOL"}}}, {"name": "StatefulPartitionedCall/assert_equal_9/Assert/AssertGuard/switch_pred/_182", "op": "Switch", "input": ["StatefulPartitionedCall/assert_equal_9/All", "StatefulPartitionedCall/assert_equal_9/All", "^StatefulPartitionedCall/assert_equal_7/Assert/AssertGuard/branch_executed/_179"], "attr": {"T": {"type": "DT_BOOL"}}}, {"name": "StatefulPartitionedCall/assert_equal_7/Assert/AssertGuard/output/_178", "op": "Merge", "input": ["Func/StatefulPartitionedCall/assert_equal_7/Assert/AssertGuard/then/_170/output/_270", "StatefulPartitionedCall/assert_equal_7/Assert/AssertGuard/else/_171/assert_equal_7/Assert/AssertGuard/Identity_1"], "attr": {"T": {"type": "DT_BOOL"}, "N": {"i": "2"}}}, {"name": "StatefulPartitionedCall/add_61", "op": "AddV2", "input": ["StatefulPartitionedCall/onnx_tf_prefix_Concat_211", "StatefulPartitionedCall/SparseToDense"], "attr": {"T": {"type": "DT_INT64"}}}, {"name": "StatefulPartitionedCall/onnx_tf_prefix_Sigmoid_4", "op": "Sigmoid", "input": ["StatefulPartitionedCall/transpose_5"], "attr": {"T": {"type": "DT_FLOAT"}}}, {"name": "Func/StatefulPartitionedCall/assert_equal_9/Assert/AssertGuard/then/_180/output/_282", "op": "Const", "input": ["^StatefulPartitionedCall/assert_equal_9/Assert/AssertGuard/pivot_t/_184"], "attr": {"value": {"tensor": {"dtype": "DT_BOOL", "tensorShape": {}}}, "dtype": {"type": "DT_BOOL"}}}, {"name": "StatefulPartitionedCall/assert_equal_9/Assert/AssertGuard/pivot_f/_183", "op": "Identity", "input": ["StatefulPartitionedCall/assert_equal_9/Assert/AssertGuard/switch_pred/_182"], "attr": {"T": {"type": "DT_BOOL"}}}, {"name": "StatefulPartitionedCall/onnx_tf_prefix_Concat_296", "op": "Const", "input": ["^StatefulPartitionedCall/assert_equal_7/Assert/AssertGuard/output/_178"], "attr": {"dtype": {"type": "DT_INT64"}, "value": {"tensor": {"dtype": "DT_INT64", "tensorShape": {"dim": [{"size": "3"}]}}}}}, {"name": "StatefulPartitionedCall/Where_3", "op": "Const", "input": ["^StatefulPartitionedCall/assert_equal_7/Assert/AssertGuard/output/_178"], "attr": {"dtype": {"type": "DT_INT64"}, "value": {"tensor": {"dtype": "DT_INT64", "tensorShape": {"dim": [{}, {"size": "1"}]}}}}}, {"name": "StatefulPartitionedCall/GatherV2_3", "op": "Const", "input": ["^StatefulPartitionedCall/assert_equal_7/Assert/AssertGuard/output/_178"], "attr": {"value": {"tensor": {"dtype": "DT_INT64", "tensorShape": {"dim": [{}]}}}, "dtype": {"type": "DT_INT64"}}}, {"name": "StatefulPartitionedCall/onnx_tf_prefix_Mul_5", "op": "Mul", "input": ["StatefulPartitionedCall/transpose_5", "StatefulPartitionedCall/onnx_tf_prefix_Sigmoid_4"], "attr": {"T": {"type": "DT_FLOAT"}}}, {"name": "StatefulPartitionedCall/assert_equal_9/Assert/AssertGuard/branch_executed/_189", "op": "Merge", "input": ["StatefulPartitionedCall/assert_equal_9/Assert/AssertGuard/pivot_t/_184", "StatefulPartitionedCall/assert_equal_9/Assert/AssertGuard/pivot_f/_183", "^ConstantFoldingCtrl/StatefulPartitionedCall/assert_equal_9/Assert/AssertGuard/StatefulPartitionedCall/assert_equal_9/All/_185_0"], "attr": {"N": {"i": "2"}, "T": {"type": "DT_BOOL"}}}, {"name": "StatefulPartitionedCall/assert_equal_9/Assert/AssertGuard/else/_181/assert_equal_9/Assert/AssertGuard/Identity_1", "op": "Const", "input": ["^StatefulPartitionedCall/assert_equal_9/Assert/AssertGuard/pivot_f/_183", "^ConstantFoldingCtrl/StatefulPartitionedCall/assert_equal_9/Assert/AssertGuard/StatefulPartitionedCall/assert_equal_9/All/_185_0"], "attr": {"value": {"tensor": {"dtype": "DT_BOOL", "tensorShape": {}}}, "dtype": {"type": "DT_BOOL"}}}, {"name": "StatefulPartitionedCall/SparseToDense_21", "op": "SparseToDense", "input": ["StatefulPartitionedCall/Where_3", "StatefulPartitionedCall/Cast_31", "StatefulPartitionedCall/GatherV2_3", "StatefulPartitionedCall/zeros_9"], "attr": {"Tindices": {"type": "DT_INT64"}, "validate_indices": {"b": true}, "T": {"type": "DT_INT64"}}}, {"name": "StatefulPartitionedCall/transpose_7", "op": "Transpose", "input": ["StatefulPartitionedCall/onnx_tf_prefix_Mul_5", "StatefulPartitionedCall/transpose_7/perm"], "attr": {"Tperm": {"type": "DT_INT32"}, "T": {"type": "DT_FLOAT"}}}, {"name": "StatefulPartitionedCall/transpose_16", "op": "Transpose", "input": ["StatefulPartitionedCall/onnx_tf_prefix_Mul_5", "StatefulPartitionedCall/transpose_16/perm"], "attr": {"T": {"type": "DT_FLOAT"}, "Tperm": {"type": "DT_INT32"}}}, {"name": "StatefulPartitionedCall/assert_equal_11/Assert/AssertGuard/pivot_t/_194", "op": "Const", "input": ["^StatefulPartitionedCall/assert_equal_9/Assert/AssertGuard/branch_executed/_189"], "attr": {"dtype": {"type": "DT_BOOL"}, "value": {"tensor": {"dtype": "DT_BOOL", "tensorShape": {}}}}}, {"name": "StatefulPartitionedCall/assert_equal_11/Assert/AssertGuard/switch_pred/_192", "op": "Switch", "input": ["StatefulPartitionedCall/assert_equal_11/All", "StatefulPartitionedCall/assert_equal_11/All", "^StatefulPartitionedCall/assert_equal_9/Assert/AssertGuard/branch_executed/_189"], "attr": {"T": {"type": "DT_BOOL"}}}, {"name": "StatefulPartitionedCall/assert_equal_9/Assert/AssertGuard/output/_188", "op": "Merge", "input": ["Func/StatefulPartitionedCall/assert_equal_9/Assert/AssertGuard/then/_180/output/_282", "StatefulPartitionedCall/assert_equal_9/Assert/AssertGuard/else/_181/assert_equal_9/Assert/AssertGuard/Identity_1"], "attr": {"T": {"type": "DT_BOOL"}, "N": {"i": "2"}}}, {"name": "StatefulPartitionedCall/add_86", "op": "AddV2", "input": ["StatefulPartitionedCall/onnx_tf_prefix_Concat_296", "StatefulPartitionedCall/SparseToDense_21"], "attr": {"T": {"type": "DT_INT64"}}}, {"name": "StatefulPartitionedCall/convolution_2", "op": "Conv2D", "input": ["StatefulPartitionedCall/transpose_7", "StatefulPartitionedCall/split_2"], "device": "/device:CPU:0", "attr": {"dilations": {"list": {"i": ["1", "1", "1", "1"]}}, "explicit_paddings": {"list": {}}, "T": {"type": "DT_FLOAT"}, "strides": {"list": {"i": ["1", "1", "1", "1"]}}, "use_cudnn_on_gpu": {"b": true}, "data_format": {"s": "TkhXQw=="}, "padding": {"s": "VkFMSUQ="}}}, {"name": "StatefulPartitionedCall/convolution_5", "op": "Conv2D", "input": ["StatefulPartitionedCall/transpose_16", "StatefulPartitionedCall/split_5"], "device": "/device:CPU:0", "attr": {"strides": {"list": {"i": ["1", "1", "1", "1"]}}, "use_cudnn_on_gpu": {"b": true}, "padding": {"s": "VkFMSUQ="}, "data_format": {"s": "TkhXQw=="}, "dilations": {"list": {"i": ["1", "1", "1", "1"]}}, "explicit_paddings": {"list": {}}, "T": {"type": "DT_FLOAT"}}}, {"name": "Func/StatefulPartitionedCall/assert_equal_11/Assert/AssertGuard/then/_190/output/_294", "op": "Const", "input": ["^StatefulPartitionedCall/assert_equal_11/Assert/AssertGuard/pivot_t/_194"], "attr": {"value": {"tensor": {"dtype": "DT_BOOL", "tensorShape": {}}}, "dtype": {"type": "DT_BOOL"}}}, {"name": "StatefulPartitionedCall/assert_equal_11/Assert/AssertGuard/pivot_f/_193", "op": "Identity", "input": ["StatefulPartitionedCall/assert_equal_11/Assert/AssertGuard/switch_pred/_192"], "attr": {"T": {"type": "DT_BOOL"}}}, {"name": "StatefulPartitionedCall/Add_2", "op": "AddV2", "input": ["StatefulPartitionedCall/convolution_2", "unknown_4"], "attr": {"T": {"type": "DT_FLOAT"}}}, {"name": "StatefulPartitionedCall/Add_5", "op": "AddV2", "input": ["StatefulPartitionedCall/convolution_5", "unknown_10"], "attr": {"T": {"type": "DT_FLOAT"}}}, {"name": "StatefulPartitionedCall/assert_equal_11/Assert/AssertGuard/branch_executed/_199", "op": "Merge", "input": ["StatefulPartitionedCall/assert_equal_11/Assert/AssertGuard/pivot_t/_194", "StatefulPartitionedCall/assert_equal_11/Assert/AssertGuard/pivot_f/_193", "^ConstantFoldingCtrl/StatefulPartitionedCall/assert_equal_11/Assert/AssertGuard/StatefulPartitionedCall/assert_equal_11/All/_195_0"], "attr": {"T": {"type": "DT_BOOL"}, "N": {"i": "2"}}}, {"name": "StatefulPartitionedCall/assert_equal_11/Assert/AssertGuard/else/_191/assert_equal_11/Assert/AssertGuard/Identity_1", "op": "Const", "input": ["^StatefulPartitionedCall/assert_equal_11/Assert/AssertGuard/pivot_f/_193", "^ConstantFoldingCtrl/StatefulPartitionedCall/assert_equal_11/Assert/AssertGuard/StatefulPartitionedCall/assert_equal_11/All/_195_0"], "attr": {"dtype": {"type": "DT_BOOL"}, "value": {"tensor": {"dtype": "DT_BOOL", "tensorShape": {}}}}}, {"name": "StatefulPartitionedCall/transpose_8", "op": "Transpose", "input": ["StatefulPartitionedCall/Add_2", "StatefulPartitionedCall/transpose_8/perm"], "attr": {"Tperm": {"type": "DT_INT32"}, "T": {"type": "DT_FLOAT"}}}, {"name": "StatefulPartitionedCall/transpose_17", "op": "Transpose", "input": ["StatefulPartitionedCall/Add_5", "StatefulPartitionedCall/transpose_17/perm"], "attr": {"T": {"type": "DT_FLOAT"}, "Tperm": {"type": "DT_INT32"}}}, {"name": "StatefulPartitionedCall/assert_equal_13/Assert/AssertGuard/pivot_t/_204", "op": "Const", "input": ["^StatefulPartitionedCall/assert_equal_11/Assert/AssertGuard/branch_executed/_199"], "attr": {"value": {"tensor": {"dtype": "DT_BOOL", "tensorShape": {}}}, "dtype": {"type": "DT_BOOL"}}}, {"name": "StatefulPartitionedCall/assert_equal_13/Assert/AssertGuard/switch_pred/_202", "op": "Switch", "input": ["StatefulPartitionedCall/assert_equal_13/All", "StatefulPartitionedCall/assert_equal_13/All", "^StatefulPartitionedCall/assert_equal_11/Assert/AssertGuard/branch_executed/_199"], "attr": {"T": {"type": "DT_BOOL"}}}, {"name": "StatefulPartitionedCall/assert_equal_11/Assert/AssertGuard/output/_198", "op": "Merge", "input": ["Func/StatefulPartitionedCall/assert_equal_11/Assert/AssertGuard/then/_190/output/_294", "StatefulPartitionedCall/assert_equal_11/Assert/AssertGuard/else/_191/assert_equal_11/Assert/AssertGuard/Identity_1"], "attr": {"N": {"i": "2"}, "T": {"type": "DT_BOOL"}}}, {"name": "StatefulPartitionedCall/onnx_tf_prefix_Sigmoid_7", "op": "Sigmoid", "input": ["StatefulPartitionedCall/transpose_8"], "attr": {"T": {"type": "DT_FLOAT"}}}, {"name": "StatefulPartitionedCall/onnx_tf_prefix_Sigmoid_17", "op": "Sigmoid", "input": ["StatefulPartitionedCall/transpose_17"], "attr": {"T": {"type": "DT_FLOAT"}}}, {"name": "Func/StatefulPartitionedCall/assert_equal_13/Assert/AssertGuard/then/_200/output/_306", "op": "Const", "input": ["^StatefulPartitionedCall/assert_equal_13/Assert/AssertGuard/pivot_t/_204"], "attr": {"dtype": {"type": "DT_BOOL"}, "value": {"tensor": {"dtype": "DT_BOOL", "tensorShape": {}}}}}, {"name": "StatefulPartitionedCall/assert_equal_13/Assert/AssertGuard/pivot_f/_203", "op": "Identity", "input": ["StatefulPartitionedCall/assert_equal_13/Assert/AssertGuard/switch_pred/_202"], "attr": {"T": {"type": "DT_BOOL"}}}, {"name": "StatefulPartitionedCall/onnx_tf_prefix_Concat_261", "op": "Const", "input": ["^StatefulPartitionedCall/assert_equal_7/Assert/AssertGuard/output/_178", "^StatefulPartitionedCall/assert_equal_9/Assert/AssertGuard/output/_188", "^StatefulPartitionedCall/assert_equal_11/Assert/AssertGuard/output/_198"], "attr": {"dtype": {"type": "DT_INT64"}, "value": {"tensor": {"dtype": "DT_INT64", "tensorShape": {"dim": [{"size": "5"}]}}}}}, {"name": "StatefulPartitionedCall/Where_2", "op": "Const", "input": ["^StatefulPartitionedCall/assert_equal_7/Assert/AssertGuard/output/_178", "^StatefulPartitionedCall/assert_equal_9/Assert/AssertGuard/output/_188", "^StatefulPartitionedCall/assert_equal_11/Assert/AssertGuard/output/_198"], "attr": {"value": {"tensor": {"dtype": "DT_INT64", "tensorShape": {"dim": [{}, {"size": "1"}]}}}, "dtype": {"type": "DT_INT64"}}}, {"name": "StatefulPartitionedCall/GatherV2_2", "op": "Const", "input": ["^StatefulPartitionedCall/assert_equal_7/Assert/AssertGuard/output/_178", "^StatefulPartitionedCall/assert_equal_9/Assert/AssertGuard/output/_188", "^StatefulPartitionedCall/assert_equal_11/Assert/AssertGuard/output/_198"], "attr": {"dtype": {"type": "DT_INT64"}, "value": {"tensor": {"dtype": "DT_INT64", "tensorShape": {"dim": [{}]}}}}}, {"name": "StatefulPartitionedCall/onnx_tf_prefix_Mul_8", "op": "Mul", "input": ["StatefulPartitionedCall/transpose_8", "StatefulPartitionedCall/onnx_tf_prefix_Sigmoid_7"], "attr": {"T": {"type": "DT_FLOAT"}}}, {"name": "StatefulPartitionedCall/onnx_tf_prefix_Mul_18", "op": "Mul", "input": ["StatefulPartitionedCall/transpose_17", "StatefulPartitionedCall/onnx_tf_prefix_Sigmoid_17"], "attr": {"T": {"type": "DT_FLOAT"}}}, {"name": "StatefulPartitionedCall/assert_equal_13/Assert/AssertGuard/branch_executed/_209", "op": "Merge", "input": ["StatefulPartitionedCall/assert_equal_13/Assert/AssertGuard/pivot_t/_204", "StatefulPartitionedCall/assert_equal_13/Assert/AssertGuard/pivot_f/_203", "^ConstantFoldingCtrl/StatefulPartitionedCall/assert_equal_13/Assert/AssertGuard/StatefulPartitionedCall/assert_equal_13/All/_205_0"], "attr": {"T": {"type": "DT_BOOL"}, "N": {"i": "2"}}}, {"name": "StatefulPartitionedCall/assert_equal_13/Assert/AssertGuard/else/_201/assert_equal_13/Assert/AssertGuard/Identity_1", "op": "Const", "input": ["^StatefulPartitionedCall/assert_equal_13/Assert/AssertGuard/pivot_f/_203", "^ConstantFoldingCtrl/StatefulPartitionedCall/assert_equal_13/Assert/AssertGuard/StatefulPartitionedCall/assert_equal_13/All/_205_0"], "attr": {"dtype": {"type": "DT_BOOL"}, "value": {"tensor": {"dtype": "DT_BOOL", "tensorShape": {}}}}}, {"name": "StatefulPartitionedCall/SparseToDense_11", "op": "SparseToDense", "input": ["StatefulPartitionedCall/Where_2", "StatefulPartitionedCall/Cast_24", "StatefulPartitionedCall/GatherV2_2", "StatefulPartitionedCall/zeros_5"], "attr": {"validate_indices": {"b": true}, "T": {"type": "DT_INT64"}, "Tindices": {"type": "DT_INT64"}}}, {"name": "StatefulPartitionedCall/transpose_10", "op": "Transpose", "input": ["StatefulPartitionedCall/onnx_tf_prefix_Mul_8", "StatefulPartitionedCall/transpose_10/perm"], "attr": {"T": {"type": "DT_FLOAT"}, "Tperm": {"type": "DT_INT32"}}}, {"name": "StatefulPartitionedCall/assert_equal_15/Assert/AssertGuard/pivot_t/_214", "op": "Const", "input": ["^StatefulPartitionedCall/assert_equal_13/Assert/AssertGuard/branch_executed/_209"], "attr": {"value": {"tensor": {"dtype": "DT_BOOL", "tensorShape": {}}}, "dtype": {"type": "DT_BOOL"}}}, {"name": "StatefulPartitionedCall/assert_equal_15/Assert/AssertGuard/switch_pred/_212", "op": "Switch", "input": ["StatefulPartitionedCall/assert_equal_15/All", "StatefulPartitionedCall/assert_equal_15/All", "^StatefulPartitionedCall/assert_equal_13/Assert/AssertGuard/branch_executed/_209"], "attr": {"T": {"type": "DT_BOOL"}}}, {"name": "StatefulPartitionedCall/assert_equal_13/Assert/AssertGuard/output/_208", "op": "Merge", "input": ["Func/StatefulPartitionedCall/assert_equal_13/Assert/AssertGuard/then/_200/output/_306", "StatefulPartitionedCall/assert_equal_13/Assert/AssertGuard/else/_201/assert_equal_13/Assert/AssertGuard/Identity_1"], "attr": {"N": {"i": "2"}, "T": {"type": "DT_BOOL"}}}, {"name": "StatefulPartitionedCall/add_76", "op": "AddV2", "input": ["StatefulPartitionedCall/onnx_tf_prefix_Concat_261", "StatefulPartitionedCall/SparseToDense_11"], "attr": {"T": {"type": "DT_INT64"}}}, {"name": "StatefulPartitionedCall/convolution_3", "op": "Conv2D", "input": ["StatefulPartitionedCall/transpose_10", "StatefulPartitionedCall/split_3"], "device": "/device:CPU:0", "attr": {"dilations": {"list": {"i": ["1", "1", "1", "1"]}}, "padding": {"s": "VkFMSUQ="}, "explicit_paddings": {"list": {}}, "T": {"type": "DT_FLOAT"}, "strides": {"list": {"i": ["1", "1", "1", "1"]}}, "use_cudnn_on_gpu": {"b": true}, "data_format": {"s": "TkhXQw=="}}}, {"name": "Func/StatefulPartitionedCall/assert_equal_15/Assert/AssertGuard/then/_210/output/_318", "op": "Const", "input": ["^StatefulPartitionedCall/assert_equal_15/Assert/AssertGuard/pivot_t/_214"], "attr": {"dtype": {"type": "DT_BOOL"}, "value": {"tensor": {"dtype": "DT_BOOL", "tensorShape": {}}}}}, {"name": "StatefulPartitionedCall/assert_equal_15/Assert/AssertGuard/pivot_f/_213", "op": "Identity", "input": ["StatefulPartitionedCall/assert_equal_15/Assert/AssertGuard/switch_pred/_212"], "attr": {"T": {"type": "DT_BOOL"}}}, {"name": "StatefulPartitionedCall/onnx_tf_prefix_Concat_346", "op": "Const", "input": ["^StatefulPartitionedCall/assert_equal_13/Assert/AssertGuard/output/_208"], "attr": {"dtype": {"type": "DT_INT64"}, "value": {"tensor": {"dtype": "DT_INT64", "tensorShape": {"dim": [{"size": "3"}]}}}}}, {"name": "StatefulPartitionedCall/Where_5", "op": "Const", "input": ["^StatefulPartitionedCall/assert_equal_13/Assert/AssertGuard/output/_208"], "attr": {"value": {"tensor": {"dtype": "DT_INT64", "tensorShape": {"dim": [{}, {"size": "1"}]}}}, "dtype": {"type": "DT_INT64"}}}, {"name": "StatefulPartitionedCall/GatherV2_5", "op": "Const", "input": ["^StatefulPartitionedCall/assert_equal_13/Assert/AssertGuard/output/_208"], "attr": {"dtype": {"type": "DT_INT64"}, "value": {"tensor": {"dtype": "DT_INT64", "tensorShape": {"dim": [{}]}}}}}, {"name": "StatefulPartitionedCall/Add_3", "op": "AddV2", "input": ["StatefulPartitionedCall/convolution_3", "unknown_6"], "attr": {"T": {"type": "DT_FLOAT"}}}, {"name": "StatefulPartitionedCall/assert_equal_15/Assert/AssertGuard/branch_executed/_219", "op": "Merge", "input": ["StatefulPartitionedCall/assert_equal_15/Assert/AssertGuard/pivot_t/_214", "StatefulPartitionedCall/assert_equal_15/Assert/AssertGuard/pivot_f/_213", "^ConstantFoldingCtrl/StatefulPartitionedCall/assert_equal_15/Assert/AssertGuard/StatefulPartitionedCall/assert_equal_15/All/_215_0"], "attr": {"T": {"type": "DT_BOOL"}, "N": {"i": "2"}}}, {"name": "StatefulPartitionedCall/assert_equal_15/Assert/AssertGuard/else/_211/assert_equal_15/Assert/AssertGuard/Identity_1", "op": "Const", "input": ["^StatefulPartitionedCall/assert_equal_15/Assert/AssertGuard/pivot_f/_213", "^ConstantFoldingCtrl/StatefulPartitionedCall/assert_equal_15/Assert/AssertGuard/StatefulPartitionedCall/assert_equal_15/All/_215_0"], "attr": {"dtype": {"type": "DT_BOOL"}, "value": {"tensor": {"dtype": "DT_BOOL", "tensorShape": {}}}}}, {"name": "StatefulPartitionedCall/SparseToDense_32", "op": "SparseToDense", "input": ["StatefulPartitionedCall/Where_5", "StatefulPartitionedCall/Cast_45", "StatefulPartitionedCall/GatherV2_5", "StatefulPartitionedCall/zeros_14"], "attr": {"validate_indices": {"b": true}, "Tindices": {"type": "DT_INT64"}, "T": {"type": "DT_INT64"}}}, {"name": "StatefulPartitionedCall/transpose_11", "op": "Transpose", "input": ["StatefulPartitionedCall/Add_3", "StatefulPartitionedCall/transpose_11/perm"], "attr": {"T": {"type": "DT_FLOAT"}, "Tperm": {"type": "DT_INT32"}}}, {"name": "StatefulPartitionedCall/assert_equal_17/Assert/AssertGuard/pivot_t/_224", "op": "Const", "input": ["^StatefulPartitionedCall/assert_equal_15/Assert/AssertGuard/branch_executed/_219"], "attr": {"dtype": {"type": "DT_BOOL"}, "value": {"tensor": {"dtype": "DT_BOOL", "tensorShape": {}}}}}, {"name": "StatefulPartitionedCall/assert_equal_17/Assert/AssertGuard/switch_pred/_222", "op": "Switch", "input": ["StatefulPartitionedCall/assert_equal_17/All", "StatefulPartitionedCall/assert_equal_17/All", "^StatefulPartitionedCall/assert_equal_15/Assert/AssertGuard/branch_executed/_219"], "attr": {"T": {"type": "DT_BOOL"}}}, {"name": "StatefulPartitionedCall/assert_equal_15/Assert/AssertGuard/output/_218", "op": "Merge", "input": ["Func/StatefulPartitionedCall/assert_equal_15/Assert/AssertGuard/then/_210/output/_318", "StatefulPartitionedCall/assert_equal_15/Assert/AssertGuard/else/_211/assert_equal_15/Assert/AssertGuard/Identity_1"], "attr": {"N": {"i": "2"}, "T": {"type": "DT_BOOL"}}}, {"name": "StatefulPartitionedCall/add_101", "op": "AddV2", "input": ["StatefulPartitionedCall/onnx_tf_prefix_Concat_346", "StatefulPartitionedCall/SparseToDense_32"], "attr": {"T": {"type": "DT_INT64"}}}, {"name": "StatefulPartitionedCall/onnx_tf_prefix_Sigmoid_10", "op": "Sigmoid", "input": ["StatefulPartitionedCall/transpose_11"], "attr": {"T": {"type": "DT_FLOAT"}}}, {"name": "Func/StatefulPartitionedCall/assert_equal_17/Assert/AssertGuard/then/_220/output/_330", "op": "Const", "input": ["^StatefulPartitionedCall/assert_equal_17/Assert/AssertGuard/pivot_t/_224"], "attr": {"dtype": {"type": "DT_BOOL"}, "value": {"tensor": {"dtype": "DT_BOOL", "tensorShape": {}}}}}, {"name": "StatefulPartitionedCall/assert_equal_17/Assert/AssertGuard/pivot_f/_223", "op": "Identity", "input": ["StatefulPartitionedCall/assert_equal_17/Assert/AssertGuard/switch_pred/_222"], "attr": {"T": {"type": "DT_BOOL"}}}, {"name": "StatefulPartitionedCall/onnx_tf_prefix_Mul_11", "op": "Mul", "input": ["StatefulPartitionedCall/transpose_11", "StatefulPartitionedCall/onnx_tf_prefix_Sigmoid_10"], "attr": {"T": {"type": "DT_FLOAT"}}}, {"name": "StatefulPartitionedCall/assert_equal_17/Assert/AssertGuard/branch_executed/_229", "op": "Merge", "input": ["StatefulPartitionedCall/assert_equal_17/Assert/AssertGuard/pivot_t/_224", "StatefulPartitionedCall/assert_equal_17/Assert/AssertGuard/pivot_f/_223", "^ConstantFoldingCtrl/StatefulPartitionedCall/assert_equal_17/Assert/AssertGuard/StatefulPartitionedCall/assert_equal_17/All/_225_0"], "attr": {"N": {"i": "2"}, "T": {"type": "DT_BOOL"}}}, {"name": "StatefulPartitionedCall/assert_equal_17/Assert/AssertGuard/else/_221/assert_equal_17/Assert/AssertGuard/Identity_1", "op": "Const", "input": ["^StatefulPartitionedCall/assert_equal_17/Assert/AssertGuard/pivot_f/_223", "^ConstantFoldingCtrl/StatefulPartitionedCall/assert_equal_17/Assert/AssertGuard/StatefulPartitionedCall/assert_equal_17/All/_225_0"], "attr": {"dtype": {"type": "DT_BOOL"}, "value": {"tensor": {"dtype": "DT_BOOL", "tensorShape": {}}}}}, {"name": "StatefulPartitionedCall/Pad_2", "op": "Pad", "input": ["StatefulPartitionedCall/onnx_tf_prefix_Mul_11", "StatefulPartitionedCall/Const_2"], "attr": {"Tpaddings": {"type": "DT_INT32"}, "T": {"type": "DT_FLOAT"}}}, {"name": "Func/StatefulPartitionedCall/output_control_node/_139", "op": "NoOp", "input": ["^StatefulPartitionedCall/assert_equal_1/Assert/AssertGuard/branch_executed/_149", "^StatefulPartitionedCall/assert_equal_11/Assert/AssertGuard/branch_executed/_199", "^StatefulPartitionedCall/assert_equal_13/Assert/AssertGuard/branch_executed/_209", "^StatefulPartitionedCall/assert_equal_15/Assert/AssertGuard/branch_executed/_219", "^StatefulPartitionedCall/assert_equal_17/Assert/AssertGuard/branch_executed/_229", "^StatefulPartitionedCall/assert_equal_3/Assert/AssertGuard/branch_executed/_159", "^StatefulPartitionedCall/assert_equal_5/Assert/AssertGuard/branch_executed/_169", "^StatefulPartitionedCall/assert_equal_7/Assert/AssertGuard/branch_executed/_179", "^StatefulPartitionedCall/assert_equal_9/Assert/AssertGuard/branch_executed/_189"]}, {"name": "StatefulPartitionedCall/NoOp", "op": "NoOp", "input": ["^StatefulPartitionedCall/assert_equal_1/Assert/AssertGuard/branch_executed/_149", "^StatefulPartitionedCall/assert_equal_11/Assert/AssertGuard/branch_executed/_199", "^StatefulPartitionedCall/assert_equal_13/Assert/AssertGuard/branch_executed/_209", "^StatefulPartitionedCall/assert_equal_15/Assert/AssertGuard/branch_executed/_219", "^StatefulPartitionedCall/assert_equal_17/Assert/AssertGuard/branch_executed/_229", "^StatefulPartitionedCall/assert_equal_3/Assert/AssertGuard/branch_executed/_159", "^StatefulPartitionedCall/assert_equal_5/Assert/AssertGuard/branch_executed/_169", "^StatefulPartitionedCall/assert_equal_7/Assert/AssertGuard/branch_executed/_179", "^StatefulPartitionedCall/assert_equal_9/Assert/AssertGuard/branch_executed/_189"], "attr": {"_acd_function_control_output": {"b": true}}}, {"name": "StatefulPartitionedCall/assert_equal_17/Assert/AssertGuard/output/_228", "op": "Merge", "input": ["Func/StatefulPartitionedCall/assert_equal_17/Assert/AssertGuard/then/_220/output/_330", "StatefulPartitionedCall/assert_equal_17/Assert/AssertGuard/else/_221/assert_equal_17/Assert/AssertGuard/Identity_1"], "attr": {"T": {"type": "DT_BOOL"}, "N": {"i": "2"}}}, {"name": "StatefulPartitionedCall/transpose_13", "op": "Transpose", "input": ["StatefulPartitionedCall/Pad_2", "StatefulPartitionedCall/transpose_13/perm"], "attr": {"Tperm": {"type": "DT_INT32"}, "T": {"type": "DT_FLOAT"}}}, {"name": "StatefulPartitionedCall/onnx_tf_prefix_Concat_311", "op": "Const", "input": ["^StatefulPartitionedCall/assert_equal_13/Assert/AssertGuard/output/_208", "^StatefulPartitionedCall/assert_equal_15/Assert/AssertGuard/output/_218", "^StatefulPartitionedCall/assert_equal_17/Assert/AssertGuard/output/_228"], "attr": {"dtype": {"type": "DT_INT64"}, "value": {"tensor": {"dtype": "DT_INT64", "tensorShape": {"dim": [{"size": "5"}]}}}}}, {"name": "StatefulPartitionedCall/Where_4", "op": "Const", "input": ["^StatefulPartitionedCall/assert_equal_13/Assert/AssertGuard/output/_208", "^StatefulPartitionedCall/assert_equal_15/Assert/AssertGuard/output/_218", "^StatefulPartitionedCall/assert_equal_17/Assert/AssertGuard/output/_228"], "attr": {"value": {"tensor": {"dtype": "DT_INT64", "tensorShape": {"dim": [{}, {"size": "1"}]}}}, "dtype": {"type": "DT_INT64"}}}, {"name": "StatefulPartitionedCall/GatherV2_4", "op": "Const", "input": ["^StatefulPartitionedCall/assert_equal_13/Assert/AssertGuard/output/_208", "^StatefulPartitionedCall/assert_equal_15/Assert/AssertGuard/output/_218", "^StatefulPartitionedCall/assert_equal_17/Assert/AssertGuard/output/_228"], "attr": {"dtype": {"type": "DT_INT64"}, "value": {"tensor": {"dtype": "DT_INT64", "tensorShape": {"dim": [{}]}}}}}, {"name": "StatefulPartitionedCall/convolution_4", "op": "Conv2D", "input": ["StatefulPartitionedCall/transpose_13", "StatefulPartitionedCall/split_4"], "device": "/device:CPU:0", "attr": {"explicit_paddings": {"list": {}}, "strides": {"list": {"i": ["1", "1", "1", "1"]}}, "padding": {"s": "VkFMSUQ="}, "data_format": {"s": "TkhXQw=="}, "T": {"type": "DT_FLOAT"}, "use_cudnn_on_gpu": {"b": true}, "dilations": {"list": {"i": ["1", "1", "1", "1"]}}}}, {"name": "StatefulPartitionedCall/SparseToDense_22", "op": "SparseToDense", "input": ["StatefulPartitionedCall/Where_4", "StatefulPartitionedCall/Cast_38", "StatefulPartitionedCall/GatherV2_4", "StatefulPartitionedCall/zeros_10"], "attr": {"T": {"type": "DT_INT64"}, "Tindices": {"type": "DT_INT64"}, "validate_indices": {"b": true}}}, {"name": "StatefulPartitionedCall/Add_4", "op": "AddV2", "input": ["StatefulPartitionedCall/convolution_4", "unknown_8"], "attr": {"T": {"type": "DT_FLOAT"}}}, {"name": "StatefulPartitionedCall/add_91", "op": "AddV2", "input": ["StatefulPartitionedCall/onnx_tf_prefix_Concat_311", "StatefulPartitionedCall/SparseToDense_22"], "attr": {"T": {"type": "DT_INT64"}}}, {"name": "StatefulPartitionedCall/transpose_14", "op": "Transpose", "input": ["StatefulPartitionedCall/Add_4", "StatefulPartitionedCall/transpose_14/perm"], "attr": {"Tperm": {"type": "DT_INT32"}, "T": {"type": "DT_FLOAT"}}}, {"name": "StatefulPartitionedCall/onnx_tf_prefix_Sigmoid_13", "op": "Sigmoid", "input": ["StatefulPartitionedCall/transpose_14"], "attr": {"T": {"type": "DT_FLOAT"}}}, {"name": "StatefulPartitionedCall/onnx_tf_prefix_Mul_14", "op": "Mul", "input": ["StatefulPartitionedCall/transpose_14", "StatefulPartitionedCall/onnx_tf_prefix_Sigmoid_13"], "attr": {"T": {"type": "DT_FLOAT"}}}, {"name": "StatefulPartitionedCall/onnx_tf_prefix_Add_15", "op": "AddV2", "input": ["StatefulPartitionedCall/onnx_tf_prefix_Mul_8", "StatefulPartitionedCall/onnx_tf_prefix_Mul_14"], "attr": {"T": {"type": "DT_FLOAT"}}}, {"name": "StatefulPartitionedCall/onnx_tf_prefix_Concat_19", "op": "ConcatV2", "input": ["StatefulPartitionedCall/onnx_tf_prefix_Add_15", "StatefulPartitionedCall/onnx_tf_prefix_Mul_18", "StatefulPartitionedCall/onnx_tf_prefix_Concat_19/axis"], "attr": {"T": {"type": "DT_FLOAT"}, "N": {"i": "2"}, "Tidx": {"type": "DT_INT32"}}}, {"name": "StatefulPartitionedCall/transpose_19", "op": "Transpose", "input": ["StatefulPartitionedCall/onnx_tf_prefix_Concat_19", "StatefulPartitionedCall/transpose_19/perm"], "attr": {"T": {"type": "DT_FLOAT"}, "Tperm": {"type": "DT_INT32"}}}, {"name": "StatefulPartitionedCall/convolution_6", "op": "Conv2D", "input": ["StatefulPartitionedCall/transpose_19", "StatefulPartitionedCall/split_6"], "device": "/device:CPU:0", "attr": {"use_cudnn_on_gpu": {"b": true}, "data_format": {"s": "TkhXQw=="}, "T": {"type": "DT_FLOAT"}, "explicit_paddings": {"list": {}}, "dilations": {"list": {"i": ["1", "1", "1", "1"]}}, "strides": {"list": {"i": ["1", "1", "1", "1"]}}, "padding": {"s": "VkFMSUQ="}}}, {"name": "StatefulPartitionedCall/Add_6", "op": "AddV2", "input": ["StatefulPartitionedCall/convolution_6", "unknown_12"], "attr": {"T": {"type": "DT_FLOAT"}}}, {"name": "StatefulPartitionedCall/transpose_20", "op": "Transpose", "input": ["StatefulPartitionedCall/Add_6", "StatefulPartitionedCall/transpose_20/perm"], "attr": {"Tperm": {"type": "DT_INT32"}, "T": {"type": "DT_FLOAT"}}}, {"name": "StatefulPartitionedCall/onnx_tf_prefix_Sigmoid_21", "op": "Sigmoid", "input": ["StatefulPartitionedCall/transpose_20"], "attr": {"T": {"type": "DT_FLOAT"}}}, {"name": "StatefulPartitionedCall/onnx_tf_prefix_Mul_22", "op": "Mul", "input": ["StatefulPartitionedCall/transpose_20", "StatefulPartitionedCall/onnx_tf_prefix_Sigmoid_21"], "attr": {"T": {"type": "DT_FLOAT"}}}, {"name": "StatefulPartitionedCall/Pad_3", "op": "Pad", "input": ["StatefulPartitionedCall/onnx_tf_prefix_Mul_22", "StatefulPartitionedCall/Const_3"], "attr": {"Tpaddings": {"type": "DT_INT32"}, "T": {"type": "DT_FLOAT"}}}, {"name": "StatefulPartitionedCall/transpose_22", "op": "Transpose", "input": ["StatefulPartitionedCall/Pad_3", "StatefulPartitionedCall/transpose_22/perm"], "attr": {"T": {"type": "DT_FLOAT"}, "Tperm": {"type": "DT_INT32"}}}, {"name": "StatefulPartitionedCall/convolution_7", "op": "Conv2D", "input": ["StatefulPartitionedCall/transpose_22", "StatefulPartitionedCall/split_7"], "device": "/device:CPU:0", "attr": {"use_cudnn_on_gpu": {"b": true}, "dilations": {"list": {"i": ["1", "1", "1", "1"]}}, "explicit_paddings": {"list": {}}, "padding": {"s": "VkFMSUQ="}, "T": {"type": "DT_FLOAT"}, "strides": {"list": {"i": ["1", "2", "2", "1"]}}, "data_format": {"s": "TkhXQw=="}}}, {"name": "StatefulPartitionedCall/Add_7", "op": "AddV2", "input": ["StatefulPartitionedCall/convolution_7", "unknown_14"], "attr": {"T": {"type": "DT_FLOAT"}}}, {"name": "StatefulPartitionedCall/transpose_23", "op": "Transpose", "input": ["StatefulPartitionedCall/Add_7", "StatefulPartitionedCall/transpose_23/perm"], "attr": {"Tperm": {"type": "DT_INT32"}, "T": {"type": "DT_FLOAT"}}}, {"name": "StatefulPartitionedCall/onnx_tf_prefix_Sigmoid_24", "op": "Sigmoid", "input": ["StatefulPartitionedCall/transpose_23"], "attr": {"T": {"type": "DT_FLOAT"}}}, {"name": "StatefulPartitionedCall/onnx_tf_prefix_Mul_25", "op": "Mul", "input": ["StatefulPartitionedCall/transpose_23", "StatefulPartitionedCall/onnx_tf_prefix_Sigmoid_24"], "attr": {"T": {"type": "DT_FLOAT"}}}, {"name": "StatefulPartitionedCall/transpose_25", "op": "Transpose", "input": ["StatefulPartitionedCall/onnx_tf_prefix_Mul_25", "StatefulPartitionedCall/transpose_25/perm"], "attr": {"Tperm": {"type": "DT_INT32"}, "T": {"type": "DT_FLOAT"}}}, {"name": "StatefulPartitionedCall/transpose_40", "op": "Transpose", "input": ["StatefulPartitionedCall/onnx_tf_prefix_Mul_25", "StatefulPartitionedCall/transpose_40/perm"], "attr": {"Tperm": {"type": "DT_INT32"}, "T": {"type": "DT_FLOAT"}}}, {"name": "StatefulPartitionedCall/convolution_8", "op": "Conv2D", "input": ["StatefulPartitionedCall/transpose_25", "StatefulPartitionedCall/split_8"], "device": "/device:CPU:0", "attr": {"padding": {"s": "VkFMSUQ="}, "strides": {"list": {"i": ["1", "1", "1", "1"]}}, "data_format": {"s": "TkhXQw=="}, "use_cudnn_on_gpu": {"b": true}, "dilations": {"list": {"i": ["1", "1", "1", "1"]}}, "T": {"type": "DT_FLOAT"}, "explicit_paddings": {"list": {}}}}, {"name": "StatefulPartitionedCall/convolution_13", "op": "Conv2D", "input": ["StatefulPartitionedCall/transpose_40", "StatefulPartitionedCall/split_13"], "device": "/device:CPU:0", "attr": {"strides": {"list": {"i": ["1", "1", "1", "1"]}}, "use_cudnn_on_gpu": {"b": true}, "explicit_paddings": {"list": {}}, "T": {"type": "DT_FLOAT"}, "data_format": {"s": "TkhXQw=="}, "dilations": {"list": {"i": ["1", "1", "1", "1"]}}, "padding": {"s": "VkFMSUQ="}}}, {"name": "StatefulPartitionedCall/Add_8", "op": "AddV2", "input": ["StatefulPartitionedCall/convolution_8", "unknown_16"], "attr": {"T": {"type": "DT_FLOAT"}}}, {"name": "StatefulPartitionedCall/Add_13", "op": "AddV2", "input": ["StatefulPartitionedCall/convolution_13", "unknown_26"], "attr": {"T": {"type": "DT_FLOAT"}}}, {"name": "StatefulPartitionedCall/transpose_26", "op": "Transpose", "input": ["StatefulPartitionedCall/Add_8", "StatefulPartitionedCall/transpose_26/perm"], "attr": {"Tperm": {"type": "DT_INT32"}, "T": {"type": "DT_FLOAT"}}}, {"name": "StatefulPartitionedCall/transpose_41", "op": "Transpose", "input": ["StatefulPartitionedCall/Add_13", "StatefulPartitionedCall/transpose_41/perm"], "attr": {"Tperm": {"type": "DT_INT32"}, "T": {"type": "DT_FLOAT"}}}, {"name": "StatefulPartitionedCall/onnx_tf_prefix_Sigmoid_27", "op": "Sigmoid", "input": ["StatefulPartitionedCall/transpose_26"], "attr": {"T": {"type": "DT_FLOAT"}}}, {"name": "StatefulPartitionedCall/onnx_tf_prefix_Sigmoid_44", "op": "Sigmoid", "input": ["StatefulPartitionedCall/transpose_41"], "attr": {"T": {"type": "DT_FLOAT"}}}, {"name": "StatefulPartitionedCall/onnx_tf_prefix_Mul_28", "op": "Mul", "input": ["StatefulPartitionedCall/transpose_26", "StatefulPartitionedCall/onnx_tf_prefix_Sigmoid_27"], "attr": {"T": {"type": "DT_FLOAT"}}}, {"name": "StatefulPartitionedCall/onnx_tf_prefix_Mul_45", "op": "Mul", "input": ["StatefulPartitionedCall/transpose_41", "StatefulPartitionedCall/onnx_tf_prefix_Sigmoid_44"], "attr": {"T": {"type": "DT_FLOAT"}}}, {"name": "StatefulPartitionedCall/transpose_28", "op": "Transpose", "input": ["StatefulPartitionedCall/onnx_tf_prefix_Mul_28", "StatefulPartitionedCall/transpose_28/perm"], "attr": {"T": {"type": "DT_FLOAT"}, "Tperm": {"type": "DT_INT32"}}}, {"name": "StatefulPartitionedCall/convolution_9", "op": "Conv2D", "input": ["StatefulPartitionedCall/transpose_28", "StatefulPartitionedCall/split_9"], "device": "/device:CPU:0", "attr": {"padding": {"s": "VkFMSUQ="}, "T": {"type": "DT_FLOAT"}, "data_format": {"s": "TkhXQw=="}, "use_cudnn_on_gpu": {"b": true}, "dilations": {"list": {"i": ["1", "1", "1", "1"]}}, "explicit_paddings": {"list": {}}, "strides": {"list": {"i": ["1", "1", "1", "1"]}}}}, {"name": "StatefulPartitionedCall/Add_9", "op": "AddV2", "input": ["StatefulPartitionedCall/convolution_9", "unknown_18"], "attr": {"T": {"type": "DT_FLOAT"}}}, {"name": "StatefulPartitionedCa…
, "unknown_108"], "attr": {"T": {"type": "DT_FLOAT"}}}, {"name": "StatefulPartitionedCall/transpose_171", "op": "Transpose", "input": ["StatefulPartitionedCall/Add_53", "StatefulPartitionedCall/transpose_171/perm"], "attr": {"Tperm": {"type": "DT_INT32"}, "T": {"type": "DT_FLOAT"}}}, {"name": "StatefulPartitionedCall/onnx_tf_prefix_Sigmoid_186", "op": "Sigmoid", "input": ["StatefulPartitionedCall/transpose_171"], "attr": {"T": {"type": "DT_FLOAT"}}}, {"name": "StatefulPartitionedCall/onnx_tf_prefix_Mul_187", "op": "Mul", "input": ["StatefulPartitionedCall/transpose_171", "StatefulPartitionedCall/onnx_tf_prefix_Sigmoid_186"], "attr": {"T": {"type": "DT_FLOAT"}}}, {"name": "StatefulPartitionedCall/Pad_17", "op": "Pad", "input": ["StatefulPartitionedCall/onnx_tf_prefix_Mul_187", "StatefulPartitionedCall/Const_19"], "attr": {"T": {"type": "DT_FLOAT"}, "Tpaddings": {"type": "DT_INT32"}}}, {"name": "StatefulPartitionedCall/transpose_173", "op": "Transpose", "input": ["StatefulPartitionedCall/Pad_17", "StatefulPartitionedCall/transpose_173/perm"], "attr": {"T": {"type": "DT_FLOAT"}, "Tperm": {"type": "DT_INT32"}}}, {"name": "StatefulPartitionedCall/convolution_54", "op": "Conv2D", "input": ["StatefulPartitionedCall/transpose_173", "StatefulPartitionedCall/split_54"], "device": "/device:CPU:0", "attr": {"data_format": {"s": "TkhXQw=="}, "T": {"type": "DT_FLOAT"}, "dilations": {"list": {"i": ["1", "1", "1", "1"]}}, "use_cudnn_on_gpu": {"b": true}, "padding": {"s": "VkFMSUQ="}, "strides": {"list": {"i": ["1", "1", "1", "1"]}}, "explicit_paddings": {"list": {}}}}, {"name": "StatefulPartitionedCall/Add_54", "op": "AddV2", "input": ["StatefulPartitionedCall/convolution_54", "unknown_110"], "attr": {"T": {"type": "DT_FLOAT"}}}, {"name": "StatefulPartitionedCall/transpose_174", "op": "Transpose", "input": ["StatefulPartitionedCall/Add_54", "StatefulPartitionedCall/transpose_174/perm"], "attr": {"T": {"type": "DT_FLOAT"}, "Tperm": {"type": "DT_INT32"}}}, {"name": "StatefulPartitionedCall/onnx_tf_prefix_Sigmoid_189", "op": "Sigmoid", "input": ["StatefulPartitionedCall/transpose_174"], "attr": {"T": {"type": "DT_FLOAT"}}}, {"name": "StatefulPartitionedCall/onnx_tf_prefix_Mul_190", "op": "Mul", "input": ["StatefulPartitionedCall/transpose_174", "StatefulPartitionedCall/onnx_tf_prefix_Sigmoid_189"], "attr": {"T": {"type": "DT_FLOAT"}}}, {"name": "StatefulPartitionedCall/onnx_tf_prefix_Concat_194", "op": "ConcatV2", "input": ["StatefulPartitionedCall/onnx_tf_prefix_Mul_190", "StatefulPartitionedCall/onnx_tf_prefix_Mul_193", "StatefulPartitionedCall/onnx_tf_prefix_Concat_194/axis"], "attr": {"N": {"i": "2"}, "T": {"type": "DT_FLOAT"}, "Tidx": {"type": "DT_INT32"}}}, {"name": "StatefulPartitionedCall/transpose_179", "op": "Transpose", "input": ["StatefulPartitionedCall/onnx_tf_prefix_Concat_194", "StatefulPartitionedCall/transpose_179/perm"], "attr": {"T": {"type": "DT_FLOAT"}, "Tperm": {"type": "DT_INT32"}}}, {"name": "StatefulPartitionedCall/convolution_56", "op": "Conv2D", "input": ["StatefulPartitionedCall/transpose_179", "StatefulPartitionedCall/split_56"], "device": "/device:CPU:0", "attr": {"use_cudnn_on_gpu": {"b": true}, "explicit_paddings": {"list": {}}, "T": {"type": "DT_FLOAT"}, "padding": {"s": "VkFMSUQ="}, "data_format": {"s": "TkhXQw=="}, "strides": {"list": {"i": ["1", "1", "1", "1"]}}, "dilations": {"list": {"i": ["1", "1", "1", "1"]}}}}, {"name": "StatefulPartitionedCall/Add_56", "op": "AddV2", "input": ["StatefulPartitionedCall/convolution_56", "unknown_114"], "attr": {"T": {"type": "DT_FLOAT"}}}, {"name": "StatefulPartitionedCall/transpose_180", "op": "Transpose", "input": ["StatefulPartitionedCall/Add_56", "StatefulPartitionedCall/transpose_180/perm"], "attr": {"Tperm": {"type": "DT_INT32"}, "T": {"type": "DT_FLOAT"}}}, {"name": "StatefulPartitionedCall/onnx_tf_prefix_Sigmoid_196", "op": "Sigmoid", "input": ["StatefulPartitionedCall/transpose_180"], "attr": {"T": {"type": "DT_FLOAT"}}}, {"name": "StatefulPartitionedCall/onnx_tf_prefix_Mul_197", "op": "Mul", "input": ["StatefulPartitionedCall/transpose_180", "StatefulPartitionedCall/onnx_tf_prefix_Sigmoid_196"], "attr": {"T": {"type": "DT_FLOAT"}}}, {"name": "StatefulPartitionedCall/transpose_188", "op": "Transpose", "input": ["StatefulPartitionedCall/onnx_tf_prefix_Mul_197", "StatefulPartitionedCall/transpose_188/perm"], "attr": {"Tperm": {"type": "DT_INT32"}, "T": {"type": "DT_FLOAT"}}}, {"name": "StatefulPartitionedCall/convolution_59", "op": "Conv2D", "input": ["StatefulPartitionedCall/transpose_188", "StatefulPartitionedCall/split_59"], "device": "/device:CPU:0", "attr": {"data_format": {"s": "TkhXQw=="}, "padding": {"s": "VkFMSUQ="}, "strides": {"list": {"i": ["1", "1", "1", "1"]}}, "dilations": {"list": {"i": ["1", "1", "1", "1"]}}, "T": {"type": "DT_FLOAT"}, "explicit_paddings": {"list": {}}, "use_cudnn_on_gpu": {"b": true}}}, {"name": "StatefulPartitionedCall/Add_87", "op": "AddV2", "input": ["StatefulPartitionedCall/convolution_59", "unknown_128"], "attr": {"T": {"type": "DT_FLOAT"}}}, {"name": "StatefulPartitionedCall/transpose_189", "op": "Transpose", "input": ["StatefulPartitionedCall/Add_87", "StatefulPartitionedCall/transpose_189/perm"], "attr": {"T": {"type": "DT_FLOAT"}, "Tperm": {"type": "DT_INT32"}}}, {"name": "StatefulPartitionedCall/onnx_tf_prefix_Reshape_312", "op": "Reshape", "input": ["StatefulPartitionedCall/transpose_189", "StatefulPartitionedCall/add_91"], "attr": {"T": {"type": "DT_FLOAT"}, "Tshape": {"type": "DT_INT64"}}}, {"name": "StatefulPartitionedCall/onnx_tf_prefix_Transpose_313", "op": "Transpose", "input": ["StatefulPartitionedCall/onnx_tf_prefix_Reshape_312", "StatefulPartitionedCall/onnx_tf_prefix_Transpose_313/perm"], "attr": {"T": {"type": "DT_FLOAT"}, "Tperm": {"type": "DT_INT32"}}}, {"name": "Identity_2", "op": "Identity", "input": ["StatefulPartitionedCall/onnx_tf_prefix_Transpose_313", "^Func/StatefulPartitionedCall/output_control_node/_139", "^StatefulPartitionedCall/NoOp"], "attr": {"T": {"type": "DT_FLOAT"}}}, {"name": "StatefulPartitionedCall/onnx_tf_prefix_Sigmoid_314", "op": "Sigmoid", "input": ["StatefulPartitionedCall/onnx_tf_prefix_Transpose_313"], "attr": {"T": {"type": "DT_FLOAT"}}}, {"name": "StatefulPartitionedCall/onnx_tf_prefix_Slice_319", "op": "StridedSlice", "input": ["StatefulPartitionedCall/onnx_tf_prefix_Sigmoid_314", "StatefulPartitionedCall/SparseToDense_23", "StatefulPartitionedCall/SelectV2_27", "StatefulPartitionedCall/SparseToDense_25"], "attr": {"T": {"type": "DT_FLOAT"}, "begin_mask": {"i": "0"}, "Index": {"type": "DT_INT64"}, "shrink_axis_mask": {"i": "0"}, "ellipsis_mask": {"i": "0"}, "end_mask": {"i": "0"}, "new_axis_mask": {"i": "0"}}}, {"name": "StatefulPartitionedCall/onnx_tf_prefix_Slice_332", "op": "StridedSlice", "input": ["StatefulPartitionedCall/onnx_tf_prefix_Sigmoid_314", "StatefulPartitionedCall/SparseToDense_26", "StatefulPartitionedCall/SelectV2_31", "StatefulPartitionedCall/SparseToDense_28"], "attr": {"Index": {"type": "DT_INT64"}, "end_mask": {"i": "0"}, "T": {"type": "DT_FLOAT"}, "begin_mask": {"i": "0"}, "new_axis_mask": {"i": "0"}, "shrink_axis_mask": {"i": "0"}, "ellipsis_mask": {"i": "0"}}}, {"name": "StatefulPartitionedCall/onnx_tf_prefix_Slice_343", "op": "StridedSlice", "input": ["StatefulPartitionedCall/onnx_tf_prefix_Sigmoid_314", "StatefulPartitionedCall/SparseToDense_29", "StatefulPartitionedCall/SelectV2_35", "StatefulPartitionedCall/SparseToDense_31"], "attr": {"T": {"type": "DT_FLOAT"}, "begin_mask": {"i": "0"}, "new_axis_mask": {"i": "0"}, "shrink_axis_mask": {"i": "0"}, "ellipsis_mask": {"i": "0"}, "Index": {"type": "DT_INT64"}, "end_mask": {"i": "0"}}}, {"name": "StatefulPartitionedCall/onnx_tf_prefix_Mul_321", "op": "Mul", "input": ["StatefulPartitionedCall/onnx_tf_prefix_Slice_319", "StatefulPartitionedCall/onnx_tf_prefix_Constant_320"], "attr": {"T": {"type": "DT_FLOAT"}}}, {"name": "StatefulPartitionedCall/onnx_tf_prefix_Mul_334", "op": "Mul", "input": ["StatefulPartitionedCall/onnx_tf_prefix_Slice_332", "StatefulPartitionedCall/onnx_tf_prefix_Constant_333"], "attr": {"T": {"type": "DT_FLOAT"}}}, {"name": "StatefulPartitionedCall/onnx_tf_prefix_Add_325", "op": "Add", "input": ["StatefulPartitionedCall/onnx_tf_prefix_Mul_321", "StatefulPartitionedCall/onnx_tf_prefix_Sub_323"], "attr": {"T": {"type": "DT_FLOAT"}}}, {"name": "StatefulPartitionedCall/onnx_tf_prefix_Pow_336", "op": "Square", "input": ["StatefulPartitionedCall/onnx_tf_prefix_Mul_334"], "attr": {"T": {"type": "DT_FLOAT"}}}, {"name": "StatefulPartitionedCall/onnx_tf_prefix_Mul_327", "op": "Mul", "input": ["StatefulPartitionedCall/onnx_tf_prefix_Add_325", "StatefulPartitionedCall/onnx_tf_prefix_Constant_326"], "attr": {"T": {"type": "DT_FLOAT"}}}, {"name": "StatefulPartitionedCall/onnx_tf_prefix_Mul_338", "op": "Mul", "input": ["StatefulPartitionedCall/onnx_tf_prefix_Pow_336", "StatefulPartitionedCall/onnx_tf_prefix_Constant_337"], "attr": {"T": {"type": "DT_FLOAT"}}}, {"name": "StatefulPartitionedCall/onnx_tf_prefix_Concat_344", "op": "ConcatV2", "input": ["StatefulPartitionedCall/onnx_tf_prefix_Mul_327", "StatefulPartitionedCall/onnx_tf_prefix_Mul_338", "StatefulPartitionedCall/onnx_tf_prefix_Slice_343", "StatefulPartitionedCall/onnx_tf_prefix_Concat_344/axis"], "attr": {"T": {"type": "DT_FLOAT"}, "N": {"i": "3"}, "Tidx": {"type": "DT_INT32"}}}, {"name": "StatefulPartitionedCall/onnx_tf_prefix_Reshape_347", "op": "Reshape", "input": ["StatefulPartitionedCall/onnx_tf_prefix_Concat_344", "StatefulPartitionedCall/add_101"], "attr": {"Tshape": {"type": "DT_INT64"}, "T": {"type": "DT_FLOAT"}}}, {"name": "StatefulPartitionedCall/onnx_tf_prefix_Concat_348", "op": "ConcatV2", "input": ["StatefulPartitionedCall/onnx_tf_prefix_Reshape_247", "StatefulPartitionedCall/onnx_tf_prefix_Reshape_297", "StatefulPartitionedCall/onnx_tf_prefix_Reshape_347", "StatefulPartitionedCall/onnx_tf_prefix_Concat_348/axis"], "attr": {"N": {"i": "3"}, "Tidx": {"type": "DT_INT32"}, "T": {"type": "DT_FLOAT"}}}, {"name": "Identity_3", "op": "Identity", "input": ["StatefulPartitionedCall/onnx_tf_prefix_Concat_348", "^Func/StatefulPartitionedCall/output_control_node/_139", "^StatefulPartitionedCall/NoOp"], "attr": {"T": {"type": "DT_FLOAT"}}}], "library": {}, "versions": {"producer": 808}}, "weightsManifest": [{"paths": ["group1-shard1of7.bin", "group1-shard2of7.bin", "group1-shard3of7.bin", "group1-shard4of7.bin", "group1-shard5of7.bin", "group1-shard6of7.bin", "group1-shard7of7.bin"], "weights": [{"name": "StatefulPartitionedCall/SelectV2_1", "shape": [1], "dtype": "int32"}, {"name": "StatefulPartitionedCall/zeros_1", "shape": [], "dtype": "int32"}, {"name": "StatefulPartitionedCall/Const_22", "shape": [], "dtype": "int32"}, {"name": "StatefulPartitionedCall/Shape_2", "shape": [5], "dtype": "int32"}, {"name": "StatefulPartitionedCall/SelectV2_2", "shape": [1], "dtype": "int32"}, {"name": "StatefulPartitionedCall/Const_21", "shape": [], "dtype": "int32"}, {"name": "StatefulPartitionedCall/ExpandDims", "shape": [1, 1], "dtype": "int32"}, {"name": "StatefulPartitionedCall/Cast_12", "shape": [1], "dtype": "int32"}, {"name": "StatefulPartitionedCall/onnx_tf_prefix_Constant_218", "shape": [1], "dtype": "int32"}, {"name": "StatefulPartitionedCall/Const_23", "shape": [], "dtype": "int32"}, {"name": "StatefulPartitionedCall/onnx_tf_prefix_Constant_220", "shape": [], "dtype": "float32"}, {"name": "StatefulPartitionedCall/onnx_tf_prefix_Sub_223", "shape": [1, 3, 80, 80, 2], "dtype": "float32"}, {"name": "StatefulPartitionedCall/onnx_tf_prefix_Constant_226", "shape": [], "dtype": "float32"}, {"name": "StatefulPartitionedCall/SelectV2_5", "shape": [1], "dtype": "int32"}, {"name": "StatefulPartitionedCall/zeros_2", "shape": [], "dtype": "int32"}, {"name": "StatefulPartitionedCall/Const_25", "shape": [], "dtype": "int32"}, {"name": "StatefulPartitionedCall/Shape_3", "shape": [5], "dtype": "int32"}, {"name": "StatefulPartitionedCall/SelectV2_6", "shape": [1], "dtype": "int32"}, {"name": "StatefulPartitionedCall/Const_24", "shape": [], "dtype": "int32"}, {"name": "StatefulPartitionedCall/ExpandDims_1", "shape": [1, 1], "dtype": "int32"}, {"name": "StatefulPartitionedCall/Cast_14", "shape": [1], "dtype": "int32"}, {"name": "StatefulPartitionedCall/onnx_tf_prefix_Constant_231", "shape": [1], "dtype": "int32"}, {"name": "StatefulPartitionedCall/Const_26", "shape": [], "dtype": "int32"}, {"name": "StatefulPartitionedCall/onnx_tf_prefix_Constant_233", "shape": [], "dtype": "float32"}, {"name": "StatefulPartitionedCall/onnx_tf_prefix_Constant_237", "shape": [1, 3, 80, 80, 2], "dtype": "float32"}, {"name": "StatefulPartitionedCall/transpose_182/perm", "shape": [4], "dtype": "int32"}, {"name": "StatefulPartitionedCall/split_57", "shape": [1, 1, 128, 255], "dtype": "float32"}, {"name": "unknown_116", "shape": [255], "dtype": "float32"}, {"name": "StatefulPartitionedCall/transpose_183/perm", "shape": [4], "dtype": "int32"}, {"name": "StatefulPartitionedCall/Cast_10", "shape": [1], "dtype": "int32"}, {"name": "StatefulPartitionedCall/zeros", "shape": [], "dtype": "int32"}, {"name": "StatefulPartitionedCall/onnx_tf_prefix_Transpose_213/perm", "shape": [5], "dtype": "int32"}, {"name": "StatefulPartitionedCall/SelectV2_9", "shape": [1], "dtype": "int32"}, {"name": "StatefulPartitionedCall/zeros_3", "shape": [], "dtype": "int32"}, {"name": "StatefulPartitionedCall/Const_28", "shape": [], "dtype": "int32"}, {"name": "StatefulPartitionedCall/Shape_4", "shape": [5], "dtype": "int32"}, {"name": "StatefulPartitionedCall/SelectV2_10", "shape": [1], "dtype": "int32"}, {"name": "StatefulPartitionedCall/Const_27", "shape": [], "dtype": "int32"}, {"name": "StatefulPartitionedCall/ExpandDims_2", "shape": [1, 1], "dtype": "int32"}, {"name": "StatefulPartitionedCall/Cast_16", "shape": [1], "dtype": "int32"}, {"name": "StatefulPartitionedCall/onnx_tf_prefix_Constant_242", "shape": [1], "dtype": "int32"}, {"name": "StatefulPartitionedCall/Const_29", "shape": [], "dtype": "int32"}, {"name": "StatefulPartitionedCall/onnx_tf_prefix_Concat_244/axis", "shape": [], "dtype": "int32"}, {"name": "StatefulPartitionedCall/Cast_17", "shape": [1], "dtype": "int32"}, {"name": "Func/StatefulPartitionedCall/assert_equal_1/Assert/AssertGuard/then/_140/output/_234", "shape": [], "dtype": "bool"}, {"name": "StatefulPartitionedCall/zeros_4", "shape": [], "dtype": "int32"}, {"name": "StatefulPartitionedCall/SelectV2_13", "shape": [1], "dtype": "int32"}, {"name": "StatefulPartitionedCall/zeros_6", "shape": [], "dtype": "int32"}, {"name": "StatefulPartitionedCall/Const_33", "shape": [], "dtype": "int32"}, {"name": "StatefulPartitionedCall/Shape_9", "shape": [5], "dtype": "int32"}, {"name": "StatefulPartitionedCall/SelectV2_14", "shape": [1], "dtype": "int32"}, {"name": "StatefulPartitionedCall/Const_32", "shape": [], "dtype": "int32"}, {"name": "StatefulPartitionedCall/ExpandDims_3", "shape": [1, 1], "dtype": "int32"}, {"name": "StatefulPartitionedCall/Cast_26", "shape": [1], "dtype": "int32"}, {"name": "StatefulPartitionedCall/onnx_tf_prefix_Constant_268", "shape": [1], "dtype": "int32"}, {"name": "StatefulPartitionedCall/Const_34", "shape": [], "dtype": "int32"}, {"name": "StatefulPartitionedCall/onnx_tf_prefix_Constant_270", "shape": [], "dtype": "float32"}, {"name": "StatefulPartitionedCall/onnx_tf_prefix_Sub_273", "shape": [1, 3, 40, 40, 2], "dtype": "float32"}, {"name": "StatefulPartitionedCall/onnx_tf_prefix_Constant_276", "shape": [], "dtype": "float32"}, {"name": "StatefulPartitionedCall/SelectV2_17", "shape": [1], "dtype": "int32"}, {"name": "StatefulPartitionedCall/zeros_7", "shape": [], "dtype": "int32"}, {"name": "StatefulPartitionedCall/Const_36", "shape": [], "dtype": "int32"}, {"name": "StatefulPartitionedCall/Shape_10", "shape": [5], "dtype": "int32"}, {"name": "StatefulPartitionedCall/SelectV2_18", "shape": [1], "dtype": "int32"}, {"name": "StatefulPartitionedCall/Const_35", "shape": [], "dtype": "int32"}, {"name": "StatefulPartitionedCall/ExpandDims_4", "shape": [1, 1], "dtype": "int32"}, {"name": "StatefulPartitionedCall/Cast_28", "shape": [1], "dtype": "int32"}, {"name": "StatefulPartitionedCall/onnx_tf_prefix_Constant_281", "shape": [1], "dtype": "int32"}, {"name": "StatefulPartitionedCall/Const_37", "shape": [], "dtype": "int32"}, {"name": "StatefulPartitionedCall/onnx_tf_prefix_Constant_283", "shape": [], "dtype": "float32"}, {"name": "StatefulPartitionedCall/onnx_tf_prefix_Constant_287", "shape": [1, 3, 40, 40, 2], "dtype": "float32"}, {"name": "StatefulPartitionedCall/transpose_185/perm", "shape": [4], "dtype": "int32"}, {"name": "StatefulPartitionedCall/split_58", "shape": [1, 1, 256, 255], "dtype": "float32"}, {"name": "unknown_122", "shape": [255], "dtype": "float32"}, {"name": "StatefulPartitionedCall/transpose_186/perm", "shape": [4], "dtype": "int32"}, {"name": "StatefulPartitionedCall/Cast_24", "shape": [1], "dtype": "int32"}, {"name": "StatefulPartitionedCall/zeros_5", "shape": [], "dtype": "int32"}, {"name": "StatefulPartitionedCall/onnx_tf_prefix_Transpose_263/perm", "shape": [5], "dtype": "int32"}, {"name": "StatefulPartitionedCall/SelectV2_21", "shape": [1], "dtype": "int32"}, {"name": "StatefulPartitionedCall/zeros_8", "shape": [], "dtype": "int32"}, {"name": "StatefulPartitionedCall/Const_39", "shape": [], "dtype": "int32"}, {"name": "StatefulPartitionedCall/Shape_11", "shape": [5], "dtype": "int32"}, {"name": "StatefulPartitionedCall/SelectV2_22", "shape": [1], "dtype": "int32"}, {"name": "StatefulPartitionedCall/Const_38", "shape": [], "dtype": "int32"}, {"name": "StatefulPartitionedCall/ExpandDims_5", "shape": [1, 1], "dtype": "int32"}, {"name": "StatefulPartitionedCall/Cast_30", "shape": [1], "dtype": "int32"}, {"name": "StatefulPartitionedCall/onnx_tf_prefix_Constant_292", "shape": [1], "dtype": "int32"}, {"name": "StatefulPartitionedCall/Const_40", "shape": [], "dtype": "int32"}, {"name": "StatefulPartitionedCall/onnx_tf_prefix_Concat_294/axis", "shape": [], "dtype": "int32"}, {"name": "StatefulPartitionedCall/Cast_31", "shape": [1], "dtype": "int32"}, {"name": "StatefulPartitionedCall/zeros_9", "shape": [], "dtype": "int32"}, {"name": "StatefulPartitionedCall/SelectV2_25", "shape": [1], "dtype": "int32"}, {"name": "StatefulPartitionedCall/zeros_11", "shape": [], "dtype": "int32"}, {"name": "StatefulPartitionedCall/Const_44", "shape": [], "dtype": "int32"}, {"name": "StatefulPartitionedCall/Shape_16", "shape": [5], "dtype": "int32"}, {"name": "StatefulPartitionedCall/SelectV2_26", "shape": [1], "dtype": "int32"}, {"name": "StatefulPartitionedCall/Const_43", "shape": [], "dtype": "int32"}, {"name": "StatefulPartitionedCall/ExpandDims_6", "shape": [1, 1], "dtype": "int32"}, {"name": "StatefulPartitionedCall/Cast_40", "shape": [1], "dtype": "int32"}, {"name": "StatefulPartitionedCall/onnx_tf_prefix_Constant_318", "shape": [1], "dtype": "int32"}, {"name": "StatefulPartitionedCall/Const_45", "shape": [], "dtype": "int32"}, {"name": "StatefulPartitionedCall/onnx_tf_prefix_Constant_320", "shape": [], "dtype": "float32"}, {"name": "StatefulPartitionedCall/onnx_tf_prefix_Sub_323", "shape": [1, 3, 20, 20, 2], "dtype": "float32"}, {"name": "StatefulPartitionedCall/onnx_tf_prefix_Constant_326", "shape": [], "dtype": "float32"}, {"name": "StatefulPartitionedCall/SelectV2_29", "shape": [1], "dtype": "int32"}, {"name": "StatefulPartitionedCall/zeros_12", "shape": [], "dtype": "int32"}, {"name": "StatefulPartitionedCall/Const_47", "shape": [], "dtype": "int32"}, {"name": "StatefulPartitionedCall/Shape_17", "shape": [5], "dtype": "int32"}, {"name": "StatefulPartitionedCall/SelectV2_30", "shape": [1], "dtype": "int32"}, {"name": "StatefulPartitionedCall/Const_46", "shape": [], "dtype": "int32"}, {"name": "StatefulPartitionedCall/ExpandDims_7", "shape": [1, 1], "dtype": "int32"}, {"name": "StatefulPartitionedCall/Cast_42", "shape": [1], "dtype": "int32"}, {"name": "StatefulPartitionedCall/onnx_tf_prefix_Constant_331", "shape": [1], "dtype": "int32"}, {"name": "StatefulPartitionedCall/Const_48", "shape": [], "dtype": "int32"}, {"name": "StatefulPartitionedCall/onnx_tf_prefix_Constant_333", "shape": [], "dtype": "float32"}, {"name": "StatefulPartitionedCall/onnx_tf_prefix_Constant_337", "shape": [1, 3, 20, 20, 2], "dtype": "float32"}, {"name": "StatefulPartitionedCall/transpose_167/perm", "shape": [4], "dtype": "int32"}, {"name": "StatefulPartitionedCall/split_52", "shape": [1, 1, 512, 256], "dtype": "float32"}, {"name": "unknown_106", "shape": [256], "dtype": "float32"}, {"name": "StatefulPartitionedCall/transpose_168/perm", "shape": [4], "dtype": "int32"}, {"name": "StatefulPartitionedCall/transpose_170/perm", "shape": [4], "dtype": "int32"}, {"name": "StatefulPartitionedCall/split_53", "shape": [1, 1, 256, 256], "dtype": "float32"}, {"name": "unknown_108", "shape": [256], "dtype": "float32"}, {"name": "StatefulPartitionedCall/transpose_171/perm", "shape": [4], "dtype": "int32"}, {"name": "StatefulPartitionedCall/Const_19", "shape": [4, 2], "dtype": "int32"}, {"name": "StatefulPartitionedCall/transpose_173/perm", "shape": [4], "dtype": "int32"}, {"name": "StatefulPartitionedCall/split_54", "shape": [3, 3, 256, 256], "dtype": "float32"}, {"name": "unknown_110", "shape": [256], "dtype": "float32"}, {"name": "StatefulPartitionedCall/transpose_174/perm", "shape": [4], "dtype": "int32"}, {"name": "StatefulPartitionedCall/transpose_149/perm", "shape": [4], "dtype": "int32"}, {"name": "StatefulPartitionedCall/split_46", "shape": [1, 1, 256, 128], "dtype": "float32"}, {"name": "unknown_94", "shape": [128], "dtype": "float32"}, {"name": "StatefulPartitionedCall/transpose_150/perm", "shape": [4], "dtype": "int32"}, {"name": "StatefulPartitionedCall/transpose_152/perm", "shape": [4], "dtype": "int32"}, {"name": "StatefulPartitionedCall/split_47", "shape": [1, 1, 128, 128], "dtype": "float32"}, {"name": "unknown_96", "shape": [128], "dtype": "float32"}, {"name": "StatefulPartitionedCall/transpose_153/perm", "shape": [4], "dtype": "int32"}, {"name": "StatefulPartitionedCall/Const_17", "shape": [4, 2], "dtype": "int32"}, {"name": "StatefulPartitionedCall/transpose_155/perm", "shape": [4], "dtype": "int32"}, {"name": "StatefulPartitionedCall/split_48", "shape": [3, 3, 128, 128], "dtype": "float32"}, {"name": "unknown_98", "shape": [128], "dtype": "float32"}, {"name": "StatefulPartitionedCall/transpose_156/perm", "shape": [4], "dtype": "int32"}, {"name": "StatefulPartitionedCall/transpose_131/perm", "shape": [4], "dtype": "int32"}, {"name": "StatefulPartitionedCall/split_40", "shape": [1, 1, 256, 64], "dtype": "float32"}, {"name": "unknown_82", "shape": [64], "dtype": "float32"}, {"name": "StatefulPartitionedCall/transpose_132/perm", "shape": [4], "dtype": "int32"}, {"name": "StatefulPartitionedCall/transpose_134/perm", "shape": [4], "dtype": "int32"}, {"name": "StatefulPartitionedCall/split_41", "shape": [1, 1, 64, 64], "dtype": "float32"}, {"name": "unknown_84", "shape": [64], "dtype": "float32"}, {"name": "StatefulPartitionedCall/transpose_135/perm", "shape": [4], "dtype": "int32"}, {"name": "StatefulPartitionedCall/Const_15", "shape": [4, 2], "dtype": "int32"}, {"name": "StatefulPartitionedCall/transpose_137/perm", "shape": [4], "dtype": "int32"}, {"name": "StatefulPartitionedCall/split_42", "shape": [3, 3, 64, 64], "dtype": "float32"}, {"name": "unknown_86", "shape": [64], "dtype": "float32"}, {"name": "StatefulPartitionedCall/transpose_138/perm", "shape": [4], "dtype": "int32"}, {"name": "StatefulPartitionedCall/transpose_128/perm", "shape": [4], "dtype": "int32"}, {"name": "StatefulPartitionedCall/Cast_3", "shape": [2], "dtype": "int32"}, {"name": "StatefulPartitionedCall/transpose_129/perm", "shape": [4], "dtype": "int32"}, {"name": "StatefulPartitionedCall/onnx_tf_prefix_Concat_141/axis", "shape": [], "dtype": "int32"}, {"name": "StatefulPartitionedCall/transpose_140/perm", "shape": [4], "dtype": "int32"}, {"name": "StatefulPartitionedCall/split_43", "shape": [1, 1, 256, 64], "dtype": "float32"}, {"name": "unknown_88", "shape": [64], "dtype": "float32"}, {"name": "StatefulPartitionedCall/transpose_141/perm", "shape": [4], "dtype": "int32"}, {"name": "StatefulPartitionedCall/onnx_tf_prefix_Concat_154/axis", "shape": [], "dtype": "int32"}, {"name": "StatefulPartitionedCall/transpose_143/perm", "shape": [4], "dtype": "int32"}, {"name": "StatefulPartitionedCall/split_44", "shape": [1, 1, 128, 128], "dtype": "float32"}, {"name": "unknown_90", "shape": [128], "dtype": "float32"}, {"name": "StatefulPartitionedCall/transpose_144/perm", "shape": [4], "dtype": "int32"}, {"name": "StatefulPartitionedCall/Const_16", "shape": [4, 2], "dtype": "int32"}, {"name": "StatefulPartitionedCall/transpose_146/perm", "shape": [4], "dtype": "int32"}, {"name": "StatefulPartitionedCall/split_45", "shape": [3, 3, 128, 128], "dtype": "float32"}, {"name": "unknown_92", "shape": [128], "dtype": "float32"}, {"name": "StatefulPartitionedCall/transpose_147/perm", "shape": [4], "dtype": "int32"}, {"name": "StatefulPartitionedCall/transpose_111/perm", "shape": [4], "dtype": "int32"}, {"name": "StatefulPartitionedCall/split_34", "shape": [1, 1, 512, 128], "dtype": "float32"}, {"name": "unknown_69", "shape": [128], "dtype": "float32"}, {"name": "StatefulPartitionedCall/transpose_112/perm", "shape": [4], "dtype": "int32"}, {"name": "StatefulPartitionedCall/transpose_114/perm", "shape": [4], "dtype": "int32"}, {"name": "StatefulPartitionedCall/split_35", "shape": [1, 1, 128, 128], "dtype": "float32"}, {"name": "unknown_71", "shape": [128], "dtype": "float32"}, {"name": "StatefulPartitionedCall/transpose_115/perm", "shape": [4], "dtype": "int32"}, {"name": "StatefulPartitionedCall/Const_13", "shape": [4, 2], "dtype": "int32"}, {"name": "StatefulPartitionedCall/transpose_117/perm", "shape": [4], "dtype": "int32"}, {"name": "StatefulPartitionedCall/split_36", "shape": [3, 3, 128, 128], "dtype": "float32"}, {"name": "unknown_73", "shape": [128], "dtype": "float32"}, {"name": "StatefulPartitionedCall/transpose_118/perm", "shape": [4], "dtype": "int32"}, {"name": "StatefulPartitionedCall/transpose_108/perm", "shape": [4], "dtype": "int32"}, {"name": "StatefulPartitionedCall/Cast_1", "shape": [2], "dtype": "int32"}, {"name": "StatefulPartitionedCall/transpose_109/perm", "shape": [4], "dtype": "int32"}, {"name": "StatefulPartitionedCall/onnx_tf_prefix_Concat_119/axis", "shape": [], "dtype": "int32"}, {"name": "StatefulPartitionedCall/transpose_120/perm", "shape": [4], "dtype": "int32"}, {"name": "StatefulPartitionedCall/split_37", "shape": [1, 1, 512, 128], "dtype": "float32"}, {"name": "unknown_75", "shape": [128], "dtype": "float32"}, {"name": "StatefulPartitionedCall/transpose_121/perm", "shape": [4], "dtype": "int32"}, {"name": "StatefulPartitionedCall/onnx_tf_prefix_Concat_132/axis", "shape": [], "dtype": "int32"}, {"name": "StatefulPartitionedCall/transpose_123/perm", "shape": [4], "dtype": "int32"}, {"name": "StatefulPartitionedCall/split_38", "shape": [1, 1, 256, 256], "dtype": "float32"}, {"name": "unknown_77", "shape": [256], "dtype": "float32"}, {"name": "StatefulPartitionedCall/transpose_124/perm", "shape": [4], "dtype": "int32"}, {"name": "StatefulPartitionedCall/transpose_126/perm", "shape": [4], "dtype": "int32"}, {"name": "StatefulPartitionedCall/split_39", "shape": [1, 1, 256, 128], "dtype": "float32"}, {"name": "unknown_79", "shape": [128], "dtype": "float32"}, {"name": "StatefulPartitionedCall/transpose_127/perm", "shape": [4], "dtype": "int32"}, {"name": "StatefulPartitionedCall/onnx_tf_prefix_Concat_161/axis", "shape": [], "dtype": "int32"}, {"name": "StatefulPartitionedCall/transpose_158/perm", "shape": [4], "dtype": "int32"}, {"name": "StatefulPartitionedCall/split_49", "shape": [1, 1, 256, 128], "dtype": "float32"}, {"name": "unknown_100", "shape": [128], "dtype": "float32"}, {"name": "StatefulPartitionedCall/transpose_159/perm", "shape": [4], "dtype": "int32"}, {"name": "StatefulPartitionedCall/onnx_tf_prefix_Concat_174/axis", "shape": [], "dtype": "int32"}, {"name": "StatefulPartitionedCall/transpose_161/perm", "shape": [4], "dtype": "int32"}, {"name": "StatefulPartitionedCall/split_50", "shape": [1, 1, 256, 256], "dtype": "float32"}, {"name": "unknown_102", "shape": [256], "dtype": "float32"}, {"name": "StatefulPartitionedCall/transpose_162/perm", "shape": [4], "dtype": "int32"}, {"name": "StatefulPartitionedCall/Const_18", "shape": [4, 2], "dtype": "int32"}, {"name": "StatefulPartitionedCall/transpose_164/perm", "shape": [4], "dtype": "int32"}, {"name": "StatefulPartitionedCall/split_51", "shape": [3, 3, 256, 256], "dtype": "float32"}, {"name": "unknown_104", "shape": [256], "dtype": "float32"}, {"name": "StatefulPartitionedCall/transpose_165/perm", "shape": [4], "dtype": "int32"}, {"name": "StatefulPartitionedCall/transpose_97/perm", "shape": [4], "dtype": "int32"}, {"name": "StatefulPartitionedCall/transpose_99/perm", "shape": [4], "dtype": "int32"}, {"name": "StatefulPartitionedCall/transpose_79/perm", "shape": [4], "dtype": "int32"}, {"name": "StatefulPartitionedCall/split_26", "shape": [1, 1, 512, 256], "dtype": "float32"}, {"name": "unknown_52", "shape": [256], "dtype": "float32"}, {"name": "StatefulPartitionedCall/transpose_80/perm", "shape": [4], "dtype": "int32"}, {"name": "StatefulPartitionedCall/transpose_82/perm", "shape": [4], "dtype": "int32"}, {"name": "StatefulPartitionedCall/split_27", "shape": [1, 1, 256, 256], "dtype": "float32"}, {"name": "unknown_54", "shape": [256], "dtype": "float32"}, {"name": "StatefulPartitionedCall/transpose_83/perm", "shape": [4], "dtype": "int32"}, {"name": "StatefulPartitionedCall/Const_11", "shape": [4, 2], "dtype": "int32"}, {"name": "StatefulPartitionedCall/transpose_85/perm", "shape": [4], "dtype": "int32"}, {"name": "StatefulPartitionedCall/split_28", "shape": [3, 3, 256, 256], "dtype": "float32"}, {"name": "unknown_56", "shape": [256], "dtype": "float32"}, {"name": "StatefulPartitionedCall/transpose_86/perm", "shape": [4], "dtype": "int32"}, {"name": "StatefulPartitionedCall/transpose_49/perm", "shape": [4], "dtype": "int32"}, {"name": "StatefulPartitionedCall/split_16", "shape": [1, 1, 256, 128], "dtype": "float32"}, {"name": "unknown_32", "shape": [128], "dtype": "float32"}, {"name": "StatefulPartitionedCall/transpose_50/perm", "shape": [4], "dtype": "int32"}, {"name": "StatefulPartitionedCall/transpose_52/perm", "shape": [4], "dtype": "int32"}, {"name": "StatefulPartitionedCall/split_17", "shape": [1, 1, 128, 128], "dtype": "float32"}, {"name": "unknown_34", "shape": [128], "dtype": "float32"}, {"name": "StatefulPartitionedCall/transpose_53/perm", "shape": [4], "dtype": "int32"}, {"name": "StatefulPartitionedCall/Const_7", "shape": [4, 2], "dtype": "int32"}, {"name": "StatefulPartitionedCall/transpose_55/perm", "shape": [4], "dtype": "int32"}, {"name": "StatefulPartitionedCall/split_18", "shape": [3, 3, 128, 128], "dtype": "float32"}, {"name": "unknown_36", "shape": [128], "dtype": "float32"}, {"name": "StatefulPartitionedCall/transpose_56/perm", "shape": [4], "dtype": "int32"}, {"name": "StatefulPartitionedCall/transpose_58/perm", "shape": [4], "dtype": "int32"}, {"name": "StatefulPartitionedCall/split_19", "shape": [1, 1, 128, 128], "dtype": "float32"}, {"name": "unknown_38", "shape": [128], "dtype": "float32"}, {"name": "StatefulPartitionedCall/transpose_59/perm", "shape": [4], "dtype": "int32"}, {"name": "StatefulPartitionedCall/Const_8", "shape": [4, 2], "dtype": "int32"}, {"name": "StatefulPartitionedCall/transpose_61/perm", "shape": [4], "dtype": "int32"}, {"name": "StatefulPartitionedCall/split_20", "shape": [3, 3, 128, 128], "dtype": "float32"}, {"name": "unknown_40", "shape": [128], "dtype": "float32"}, {"name": "StatefulPartitionedCall/transpose_62/perm", "shape": [4], "dtype": "int32"}, {"name": "StatefulPartitionedCall/transpose_64/perm", "shape": [4], "dtype": "int32"}, {"name": "StatefulPartitionedCall/split_21", "shape": [1, 1, 128, 128], "dtype": "float32"}, {"name": "unknown_42", "shape": [128], "dtype": "float32"}, {"name": "StatefulPartitionedCall/transpose_65/perm", "shape": [4], "dtype": "int32"}, {"name": "StatefulPartitionedCall/Const_9", "shape": [4, 2], "dtype": "int32"}, {"name": "StatefulPartitionedCall/transpose_67/perm", "shape": [4], "dtype": "int32"}, {"name": "StatefulPartitionedCall/split_22", "shape": [3, 3, 128, 128], "dtype": "float32"}, {"name": "unknown_44", "shape": [128], "dtype": "float32"}, {"name": "StatefulPartitionedCall/transpose_68/perm", "shape": [4], "dtype": "int32"}, {"name": "StatefulPartitionedCall/transpose_25/perm", "shape": [4], "dtype": "int32"}, {"name": "StatefulPartitionedCall/split_8", "shape": [1, 1, 128, 64], "dtype": "float32"}, {"name": "unknown_16", "shape": [64], "dtype": "float32"}, {"name": "StatefulPartitionedCall/transpose_26/perm", "shape": [4], "dtype": "int32"}, {"name": "StatefulPartitionedCall/transpose_28/perm", "shape": [4], "dtype": "int32"}, {"name": "StatefulPartitionedCall/split_9", "shape": [1, 1, 64, 64], "dtype": "float32"}, {"name": "unknown_18", "shape": [64], "dtype": "float32"}, {"name": "StatefulPartitionedCall/transpose_29/perm", "shape": [4], "dtype": "int32"}, {"name": "StatefulPartitionedCall/Const_4", "shape": [4, 2], "dtype": "int32"}, {"name": "StatefulPartitionedCall/transpose_31/perm", "shape": [4], "dtype": "int32"}, {"name": "StatefulPartitionedCall/split_10", "shape": [3, 3, 64, 64], "dtype": "float32"}, {"name": "unknown_20", "shape": [64], "dtype": "float32"}, {"name": "StatefulPartitionedCall/transpose_32/perm", "shape": [4], "dtype": "int32"}, {"name": "StatefulPartitionedCall/transpose_34/perm", "shape": [4], "dtype": "int32"}, {"name": "StatefulPartitionedCall/split_11", "shape": [1, 1, 64, 64], "dtype": "float32"}, {"name": "unknown_22", "shape": [64], "dtype": "float32"}, {"name": "StatefulPartitionedCall/transpose_35/perm", "shape": [4], "dtype": "int32"}, {"name": "StatefulPartitionedCall/Const_5", "shape": [4, 2], "dtype": "int32"}, {"name": "StatefulPartitionedCall/transpose_37/perm", "shape": [4], "dtype": "int32"}, {"name": "StatefulPartitionedCall/split_12", "shape": [3, 3, 64, 64], "dtype": "float32"}, {"name": "unknown_24", "shape": [64], "dtype": "float32"}, {"name": "StatefulPartitionedCall/transpose_38/perm", "shape": [4], "dtype": "int32"}, {"name": "StatefulPartitionedCall/transpose_7/perm", "shape": [4], "dtype": "int32"}, {"name": "StatefulPartitionedCall/split_2", "shape": [1, 1, 64, 32], "dtype": "float32"}, {"name": "unknown_4", "shape": [32], "dtype": "float32"}, {"name": "StatefulPartitionedCall/transpose_8/perm", "shape": [4], "dtype": "int32"}, {"name": "StatefulPartitionedCall/transpose_10/perm", "shape": [4], "dtype": "int32"}, {"name": "StatefulPartitionedCall/split_3", "shape": [1, 1, 32, 32], "dtype": "float32"}, {"name": "unknown_6", "shape": [32], "dtype": "float32"}, {"name": "StatefulPartitionedCall/transpose_11/perm", "shape": [4], "dtype": "int32"}, {"name": "StatefulPartitionedCall/Const_2", "shape": [4, 2], "dtype": "int32"}, {"name": "StatefulPartitionedCall/transpose_13/perm", "shape": [4], "dtype": "int32"}, {"name": "StatefulPartitionedCall/split_4", "shape": [3, 3, 32, 32], "dtype": "float32"}, {"name": "unknown_8", "shape": [32], "dtype": "float32"}, {"name": "StatefulPartitionedCall/transpose_14/perm", "shape": [4], "dtype": "int32"}, {"name": "StatefulPartitionedCall/Const", "shape": [4, 2], "dtype": "int32"}, {"name": "StatefulPartitionedCall/transpose_1/perm", "shape": [4], "dtype": "int32"}, {"name": "StatefulPartitionedCall/split", "shape": [6, 6, 3, 32], "dtype": "float32"}, {"name": "unknown_0", "shape": [32], "dtype": "float32"}, {"name": "StatefulPartitionedCall/transpose_2/perm", "shape": [4], "dtype": "int32"}, {"name": "StatefulPartitionedCall/Const_1", "shape": [4, 2], "dtype": "int32"}, {"name": "StatefulPartitionedCall/transpose_4/perm", "shape": [4], "dtype": "int32"}, {"name": "StatefulPartitionedCall/split_1", "shape": [3, 3, 32, 64], "dtype": "float32"}, {"name": "unknown_2", "shape": [64], "dtype": "float32"}, {"name": "StatefulPartitionedCall/transpose_5/perm", "shape": [4], "dtype": "int32"}, {"name": "StatefulPartitionedCall/transpose_16/perm", "shape": [4], "dtype": "int32"}, {"name": "StatefulPartitionedCall/split_5", "shape": [1, 1, 64, 32], "dtype": "float32"}, {"name": "unknown_10", "shape": [32], "dtype": "float32"}, {"name": "StatefulPartitionedCall/transpose_17/perm", "shape": [4], "dtype": "int32"}, {"name": "StatefulPartitionedCall/onnx_tf_prefix_Concat_19/axis", "shape": [], "dtype": "int32"}, {"name": "StatefulPartitionedCall/transpose_19/perm", "shape": [4], "dtype": "int32"}, {"name": "StatefulPartitionedCall/split_6", "shape": [1, 1, 64, 64], "dtype": "float32"}, {"name": "unknown_12", "shape": [64], "dtype": "float32"}, {"name": "StatefulPartitionedCall/transpose_20/perm", "shape": [4], "dtype": "int32"}, {"name": "StatefulPartitionedCall/Const_3", "shape": [4, 2], "dtype": "int32"}, {"name": "StatefulPartitionedCall/transpose_22/perm", "shape": [4], "dtype": "int32"}, {"name": "StatefulPartitionedCall/split_7", "shape": [3, 3, 64, 128], "dtype": "float32"}, {"name": "unknown_14", "shape": [128], "dtype": "float32"}, {"name": "StatefulPartitionedCall/transpose_23/perm", "shape": [4], "dtype": "int32"}, {"name": "StatefulPartitionedCall/transpose_40/perm", "shape": [4], "dtype": "int32"}, {"name": "StatefulPartitionedCall/split_13", "shape": [1, 1, 128, 64], "dtype": "float32"}, {"name": "unknown_26", "shape": [64], "dtype": "float32"}, {"name": "StatefulPartitionedCall/transpose_41/perm", "shape": [4], "dtype": "int32"}, {"name": "StatefulPartitionedCall/onnx_tf_prefix_Concat_46/axis", "shape": [], "dtype": "int32"}, {"name": "StatefulPartitionedCall/transpose_43/perm", "shape": [4], "dtype": "int32"}, {"name": "StatefulPartitionedCall/split_14", "shape": [1, 1, 128, 128], "dtype": "float32"}, {"name": "unknown_28", "shape": [128], "dtype": "float32"}, {"name": "StatefulPartitionedCall/transpose_44/perm", "shape": [4], "dtype": "int32"}, {"name": "StatefulPartitionedCall/Const_6", "shape": [4, 2], "dtype": "int32"}, {"name": "StatefulPartitionedCall/transpose_46/perm", "shape": [4], "dtype": "int32"}, {"name": "StatefulPartitionedCall/split_15", "shape": [3, 3, 128, 256], "dtype": "float32"}, {"name": "unknown_30", "shape": [256], "dtype": "float32"}, {"name": "StatefulPartitionedCall/transpose_47/perm", "shape": [4], "dtype": "int32"}, {"name": "StatefulPartitionedCall/transpose_70/perm", "shape": [4], "dtype": "int32"}, {"name": "StatefulPartitionedCall/split_23", "shape": [1, 1, 256, 128], "dtype": "float32"}, {"name": "unknown_46", "shape": [128], "dtype": "float32"}, {"name": "StatefulPartitionedCall/transpose_71/perm", "shape": [4], "dtype": "int32"}, {"name": "StatefulPartitionedCall/onnx_tf_prefix_Concat_80/axis", "shape": [], "dtype": "int32"}, {"name": "StatefulPartitionedCall/transpose_73/perm", "shape": [4], "dtype": "int32"}, {"name": "StatefulPartitionedCall/split_24", "shape": [1, 1, 256, 256], "dtype": "float32"}, {"name": "unknown_48", "shape": [256], "dtype": "float32"}, {"name": "StatefulPartitionedCall/transpose_74/perm", "shape": [4], "dtype": "int32"}, {"name": "StatefulPartitionedCall/Const_10", "shape": [4, 2], "dtype": "int32"}, {"name": "StatefulPartitionedCall/transpose_76/perm", "shape": [4], "dtype": "int32"}, {"name": "StatefulPartitionedCall/split_25", "shape": [3, 3, 256, 512], "dtype": "float32"}, {"name": "unknown_50", "shape": [512], "dtype": "float32"}, {"name": "StatefulPartitionedCall/transpose_77/perm", "shape": [4], "dtype": "int32"}, {"name": "StatefulPartitionedCall/transpose_88/perm", "shape": [4], "dtype": "int32"}, {"name": "StatefulPartitionedCall/split_29", "shape": [1, 1, 512, 256], "dtype": "float32"}, {"name": "unknown_58", "shape": [256], "dtype": "float32"}, {"name": "StatefulPartitionedCall/transpose_89/perm", "shape": [4], "dtype": "int32"}, {"name": "StatefulPartitionedCall/onnx_tf_prefix_Concat_100/axis", "shape": [], "dtype": "int32"}, {"name": "StatefulPartitionedCall/transpose_91/perm", "shape": [4], "dtype": "int32"}, {"name": "StatefulPartitionedCall/split_30", "shape": [1, 1, 512, 512], "dtype": "float32"}, {"name": "unknown_60", "shape": [512], "dtype": "float32"}, {"name": "StatefulPartitionedCall/transpose_92/perm", "shape": [4], "dtype": "int32"}, {"name": "StatefulPartitionedCall/transpose_94/perm", "shape": [4], "dtype": "int32"}, {"name": "StatefulPartitionedCall/split_31", "shape": [1, 1, 512, 256], "dtype": "float32"}, {"name": "unknown_62", "shape": [256], "dtype": "float32"}, {"name": "StatefulPartitionedCall/transpose_95/perm", "shape": [4], "dtype": "int32"}, {"name": "StatefulPartitionedCall/transpose_96/perm", "shape": [4], "dtype": "int32"}, {"name": "StatefulPartitionedCall/transpose_101/perm", "shape": [4], "dtype": "int32"}, {"name": "StatefulPartitionedCall/onnx_tf_prefix_Concat_110/axis", "shape": [], "dtype": "int32"}, {"name": "StatefulPartitionedCall/transpose_103/perm", "shape": [4], "dtype": "int32"}, {"name": "StatefulPartitionedCall/split_32", "shape": [1, 1, 1024, 512], "dtype": "float32"}, {"name": "unknown_64", "shape": [512], "dtype": "float32"}, {"name": "StatefulPartitionedCall/transpose_104/perm", "shape": [4], "dtype": "int32"}, {"name": "StatefulPartitionedCall/transpose_106/perm", "shape": [4], "dtype": "int32"}, {"name": "StatefulPartitionedCall/split_33", "shape": [1, 1, 512, 256], "dtype": "float32"}, {"name": "unknown_66", "shape": [256], "dtype": "float32"}, {"name": "StatefulPartitionedCall/transpose_107/perm", "shape": [4], "dtype": "int32"}, {"name": "StatefulPartitionedCall/onnx_tf_prefix_Concat_181/axis", "shape": [], "dtype": "int32"}, {"name": "StatefulPartitionedCall/transpose_176/perm", "shape": [4], "dtype": "int32"}, {"name": "StatefulPartitionedCall/split_55", "shape": [1, 1, 512, 256], "dtype": "float32"}, {"name": "unknown_112", "shape": [256], "dtype": "float32"}, {"name": "StatefulPartitionedCall/transpose_177/perm", "shape": [4], "dtype": "int32"}, {"name": "StatefulPartitionedCall/onnx_tf_prefix_Concat_194/axis", "shape": [], "dtype": "int32"}, {"name": "StatefulPartitionedCall/transpose_179/perm", "shape": [4], "dtype": "int32"}, {"name": "StatefulPartitionedCall/split_56", "shape": [1, 1, 512, 512], "dtype": "float32"}, {"name": "unknown_114", "shape": [512], "dtype": "float32"}, {"name": "StatefulPartitionedCall/transpose_180/perm", "shape": [4], "dtype": "int32"}, {"name": "StatefulPartitionedCall/transpose_188/perm", "shape": [4], "dtype": "int32"}, {"name": "StatefulPartitionedCall/split_59", "shape": [1, 1, 512, 255], "dtype": "float32"}, {"name": "unknown_128", "shape": [255], "dtype": "float32"}, {"name": "StatefulPartitionedCall/transpose_189/perm", "shape": [4], "dtype": "int32"}, {"name": "StatefulPartitionedCall/Cast_38", "shape": [1], "dtype": "int32"}, {"name": "StatefulPartitionedCall/zeros_10", "shape": [], "dtype": "int32"}, {"name": "StatefulPartitionedCall/onnx_tf_prefix_Transpose_313/perm", "shape": [5], "dtype": "int32"}, {"name": "StatefulPartitionedCall/SelectV2_33", "shape": [1], "dtype": "int32"}, {"name": "StatefulPartitionedCall/zeros_13", "shape": [], "dtype": "int32"}, {"name": "StatefulPartitionedCall/Const_50", "shape": [], "dtype": "int32"}, {"name": "StatefulPartitionedCall/Shape_18", "shape": [5], "dtype": "int32"}, {"name": "StatefulPartitionedCall/SelectV2_34", "shape": [1], "dtype": "int32"}, {"name": "StatefulPartitionedCall/Const_49", "shape": [], "dtype": "int32"}, {"name": "StatefulPartitionedCall/ExpandDims_8", "shape": [1, 1], "dtype": "int32"}, {"name": "StatefulPartitionedCall/Cast_44", "shape": [1], "dtype": "int32"}, {"name": "StatefulPartitionedCall/onnx_tf_prefix_Constant_342", "shape": [1], "dtype": "int32"}, {"name": "StatefulPartitionedCall/Const_51", "shape": [], "dtype": "int32"}, {"name": "StatefulPartitionedCall/onnx_tf_prefix_Concat_344/axis", "shape": [], "dtype": "int32"}, {"name": "StatefulPartitionedCall/Cast_45", "shape": [1], "dtype": "int32"}, {"name": "StatefulPartitionedCall/zeros_14", "shape": [], "dtype": "int32"}, {"name": "StatefulPartitionedCall/onnx_tf_prefix_Concat_348/axis", "shape": [], "dtype": "int32"}, {"name": "StatefulPartitionedCall/assert_equal_11/All", "shape": [], "dtype": "bool"}, {"name": "StatefulPartitionedCall/assert_equal_13/All", "shape": [], "dtype": "bool"}, {"name": "StatefulPartitionedCall/assert_equal_15/All", "shape": [], "dtype": "bool"}, {"name": "StatefulPartitionedCall/assert_equal_17/All", "shape": [], "dtype": "bool"}, {"name": "StatefulPartitionedCall/assert_equal_1/Assert/AssertGuard/pivot_t/_144", "shape": [], "dtype": "bool"}, {"name": "StatefulPartitionedCall/assert_equal_1/All", "shape": [], "dtype": "bool"}, {"name": "StatefulPartitionedCall/assert_equal_3/All", "shape": [], "dtype": "bool"}, {"name": "StatefulPartitionedCall/assert_equal_5/All", "shape": [], "dtype": "bool"}, {"name": "StatefulPartitionedCall/assert_equal_7/All", "shape": [], "dtype": "bool"}, {"name": "StatefulPartitionedCall/assert_equal_9/All", "shape": [], "dtype": "bool"}, {"name": "StatefulPartitionedCall/assert_equal_1/Assert/AssertGuard/else/_141/assert_equal_1/Assert/AssertGuard/Identity_1", "shape": [], "dtype": "bool"}, {"name": "StatefulPartitionedCall/assert_equal_3/Assert/AssertGuard/pivot_t/_154", "shape": [], "dtype": "bool"}, {"name": "StatefulPartitionedCall/onnx_tf_prefix_Concat_246", "shape": [3], "dtype": "int32"}, {"name": "StatefulPartitionedCall/Where_1", "shape": [0, 1], "dtype": "int32"}, {"name": "StatefulPartitionedCall/GatherV2_1", "shape": [0], "dtype": "int32"}, {"name": "Func/StatefulPartitionedCall/assert_equal_3/Assert/AssertGuard/then/_150/output/_246", "shape": [], "dtype": "bool"}, {"name": "StatefulPartitionedCall/assert_equal_3/Assert/AssertGuard/else/_151/assert_equal_3/Assert/AssertGuard/Identity_1", "shape": [], "dtype": "bool"}, {"name": "StatefulPartitionedCall/assert_equal_5/Assert/AssertGuard/pivot_t/_164", "shape": [], "dtype": "bool"}, {"name": "Func/StatefulPartitionedCall/assert_equal_5/Assert/AssertGuard/then/_160/output/_258", "shape": [], "dtype": "bool"}, {"name": "StatefulPartitionedCall/assert_equal_5/Assert/AssertGuard/else/_161/assert_equal_5/Assert/AssertGuard/Identity_1", "shape": [], "dtype": "bool"}, {"name": "StatefulPartitionedCall/assert_equal_7/Assert/AssertGuard/pivot_t/_174", "shape": [], "dtype": "bool"}, {"name": "Func/StatefulPartitionedCall/assert_equal_7/Assert/AssertGuard/then/_170/output/_270", "shape": [], "dtype": "bool"}, {"name": "StatefulPartitionedCall/onnx_tf_prefix_Concat_211", "shape": [5], "dtype": "int32"}, {"name": "StatefulPartitionedCall/Where", "shape": [0, 1], "dtype": "int32"}, {"name": "StatefulPartitionedCall/GatherV2", "shape": [0], "dtype": "int32"}, {"name": "StatefulPartitionedCall/assert_equal_7/Assert/AssertGuard/else/_171/assert_equal_7/Assert/AssertGuard/Identity_1", "shape": [], "dtype": "bool"}, {"name": "StatefulPartitionedCall/assert_equal_9/Assert/AssertGuard/pivot_t/_184", "shape": [], "dtype": "bool"}, {"name": "Func/StatefulPartitionedCall/assert_equal_9/Assert/AssertGuard/then/_180/output/_282", "shape": [], "dtype": "bool"}, {"name": "StatefulPartitionedCall/onnx_tf_prefix_Concat_296", "shape": [3], "dtype": "int32"}, {"name": "StatefulPartitionedCall/Where_3", "shape": [0, 1], "dtype": "int32"}, {"name": "StatefulPartitionedCall/GatherV2_3", "shape": [0], "dtype": "int32"}, {"name": "StatefulPartitionedCall/assert_equal_9/Assert/AssertGuard/else/_181/assert_equal_9/Assert/AssertGuard/Identity_1", "shape": [], "dtype": "bool"}, {"name": "StatefulPartitionedCall/assert_equal_11/Assert/AssertGuard/pivot_t/_194", "shape": [], "dtype": "bool"}, {"name": "Func/StatefulPartitionedCall/assert_equal_11/Assert/AssertGuard/then/_190/output/_294", "shape": [], "dtype": "bool"}, {"name": "StatefulPartitionedCall/assert_equal_11/Assert/AssertGuard/else/_191/assert_equal_11/Assert/AssertGuard/Identity_1", "shape": [], "dtype": "bool"}, {"name": "StatefulPartitionedCall/assert_equal_13/Assert/AssertGuard/pivot_t/_204", "shape": [], "dtype": "bool"}, {"name": "Func/StatefulPartitionedCall/assert_equal_13/Assert/AssertGuard/then/_200/output/_306", "shape": [], "dtype": "bool"}, {"name": "StatefulPartitionedCall/onnx_tf_prefix_Concat_261", "shape": [5], "dtype": "int32"}, {"name": "StatefulPartitionedCall/Where_2", "shape": [0, 1], "dtype": "int32"}, {"name": "StatefulPartitionedCall/GatherV2_2", "shape": [0], "dtype": "int32"}, {"name": "StatefulPartitionedCall/assert_equal_13/Assert/AssertGuard/else/_201/assert_equal_13/Assert/AssertGuard/Identity_1", "shape": [], "dtype": "bool"}, {"name": "StatefulPartitionedCall/assert_equal_15/Assert/AssertGuard/pivot_t/_214", "shape": [], "dtype": "bool"}, {"name": "Func/StatefulPartitionedCall/assert_equal_15/Assert/AssertGuard/then/_210/output/_318", "shape": [], "dtype": "bool"}, {"name": "StatefulPartitionedCall/onnx_tf_prefix_Concat_346", "shape": [3], "dtype": "int32"}, {"name": "StatefulPartitionedCall/Where_5", "shape": [0, 1], "dtype": "int32"}, {"name": "StatefulPartitionedCall/GatherV2_5", "shape": [0], "dtype": "int32"}, {"name": "StatefulPartitionedCall/assert_equal_15/Assert/AssertGuard/else/_211/assert_equal_15/Assert/AssertGuard/Identity_1", "shape": [], "dtype": "bool"}, {"name": "StatefulPartitionedCall/assert_equal_17/Assert/AssertGuard/pivot_t/_224", "shape": [], "dtype": "bool"}, {"name": "Func/StatefulPartitionedCall/assert_equal_17/Assert/AssertGuard/then/_220/output/_330", "shape": [], "dtype": "bool"}, {"name": "StatefulPartitionedCall/assert_equal_17/Assert/AssertGuard/else/_221/assert_equal_17/Assert/AssertGuard/Identity_1", "shape": [], "dtype": "bool"}, {"name": "StatefulPartitionedCall/onnx_tf_prefix_Concat_311", "shape": [5], "dtype": "int32"}, {"name": "StatefulPartitionedCall/Where_4", "shape": [0, 1], "dtype": "int32"}, {"name": "StatefulPartitionedCall/GatherV2_4", "shape": [0], "dtype": "int32"}]}]}